…
 'flip_toy_var_order': False,
 'generate': False,
 'hidden_size': 64,
 'input_dims': torch.Size([3, 128, 128]),
 'input_order': 'random',
 'input_size': 49152,
 'log_interval': 1000,
 'lr': 0.0001,
 'model': 'realnvp',
 'n_blocks': 32,
 'n_components': 1,
 'n_epochs': 50,
 'n_hidden': 1,
 'no_batch_norm': False,
 'no_cuda': False,
 'output_dir': './results/mafencoderFalse_channel-1_nblocks32/',
 'restore_file': None,
 'results_file': 'results.txt',
 'seed': 1,
 'start_epoch': 0,
 'train': True,
 'use_encoder': False}
RealNVP(
  (net): FlowSequential(
    (0): LinearMaskedCoupling(
      (s_net): Sequential(
        (0): Linear(in_features=49152, out_features=64, bias=True)
        (1): Tanh()
        (2): Linear(in_features=64, out_features=64, bias=True)
        (3): Tanh()
        (4): Linear(in_features=64, out_features=49152, bias=True)
      )
      (t_net): Sequential(
        (0): Linear(in_features=49152, out_features=64, bias=True)
        (1): ReLU()
        (2): Linear(in_features=64, out_features=64, bias=True)
        (3): ReLU()
        (4): Linear(in_features=64, out_features=49152, bias=True)
      )
    )
    (1): BatchNorm()
    (2): LinearMaskedCoupling(
      (s_net): Sequential(
        (0): Linear(in_features=49152, out_features=64, bias=True)
        (1): Tanh()
        (2): Linear(in_features=64, out_features=64, bias=True)
        (3): Tanh()
        (4): Linear(in_features=64, out_features=49152, bias=True)
      )
      (t_net): Sequential(
        (0): Linear(in_features=49152, out_features=64, bias=True)
        (1): ReLU()
        (2): Linear(in_features=64, out_features=64, bias=True)
        (3): ReLU()
        (4): Linear(in_features=64, out_features=49152, bias=True)
      )
    )
    (3): BatchNorm()
    (4): LinearMaskedCoupling(
      (s_net): Sequential(
        (0): Linear(in_features=49152, out_features=64, bias=True)
        (1): Tanh()
        (2): Linear(in_features=64, out_features=64, bias=True)
        (3): Tanh()
        (4): Linear(in_features=64, out_features=49152, bias=True)
      )
      (t_net): Sequential(
        (0): Linear(in_features=49152, out_features=64, bias=True)
        (1): ReLU()
        (2): Linear(in_features=64, out_features=64, bias=True)
        (3): ReLU()
        (4): Linear(in_features=64, out_features=49152, bias=True)
      )
    )
    (5): BatchNorm()
    (6): LinearMaskedCoupling(
      (s_net): Sequential(
        (0): Linear(in_features=49152, out_features=64, bias=True)
        (1): Tanh()
        (2): Linear(in_features=64, out_features=64, bias=True)
        (3): Tanh()
        (4): Linear(in_features=64, out_features=49152, bias=True)
      )
      (t_net): Sequential(
        (0): Linear(in_features=49152, out_features=64, bias=True)
        (1): ReLU()
        (2): Linear(in_features=64, out_features=64, bias=True)
        (3): ReLU()
        (4): Linear(in_features=64, out_features=49152, bias=True)
      )
    )
    (7): BatchNorm()
    (8): LinearMaskedCoupling(
      (s_net): Sequential(
        (0): Linear(in_features=49152, out_features=64, bias=True)
        (1): Tanh()
        (2): Linear(in_features=64, out_features=64, bias=True)
        (3): Tanh()
        (4): Linear(in_features=64, out_features=49152, bias=True)
      )
      (t_net): Sequential(
        (0): Linear(in_features=49152, out_features=64, bias=True)
        (1): ReLU()
        (2): Linear(in_features=64, out_features=64, bias=True)
        (3): ReLU()
        (4): Linear(in_features=64, out_features=49152, bias=True)
      )
    )
    (9): BatchNorm()
    (10): LinearMaskedCoupling(
      (s_net): Sequential(
        (0): Linear(in_features=49152, out_features=64, bias=True)
        (1): Tanh()
        (2): Linear(in_features=64, out_features=64, bias=True)
        (3): Tanh()
        (4): Linear(in_features=64, out_features=49152, bias=True)
      )
      (t_net): Sequential(
        (0): Linear(in_features=49152, out_features=64, bias=True)
        (1): ReLU()
        (2): Linear(in_features=64, out_features=64, bias=True)
        (3): ReLU()
        (4): Linear(in_features=64, out_features=49152, bias=True)
      )
    )
    (11): BatchNorm()
    (12): LinearMaskedCoupling(
      (s_net): Sequential(
        (0): Linear(in_features=49152, out_features=64, bias=True)
        (1): Tanh()
        (2): Linear(in_features=64, out_features=64, bias=True)
        (3): Tanh()
        (4): Linear(in_features=64, out_features=49152, bias=True)
      )
      (t_net): Sequential(
        (0): Linear(in_features=49152, out_features=64, bias=True)
        (1): ReLU()
        (2): Linear(in_features=64, out_features=64, bias=True)
        (3): ReLU()
        (4): Linear(in_features=64, out_features=49152, bias=True)
      )
    )
    (13): BatchNorm()
    (14): LinearMaskedCoupling(
      (s_net): Sequential(
        (0): Linear(in_features=49152, out_features=64, bias=True)
        (1): Tanh()
        (2): Linear(in_features=64, out_features=64, bias=True)
        (3): Tanh()
        (4): Linear(in_features=64, out_features=49152, bias=True)
      )
      (t_net): Sequential(
        (0): Linear(in_features=49152, out_features=64, bias=True)
        (1): ReLU()
        (2): Linear(in_features=64, out_features=64, bias=True)
        (3): ReLU()
        (4): Linear(in_features=64, out_features=49152, bias=True)
      )
    )
    (15): BatchNorm()
    (16): LinearMaskedCoupling(
      (s_net): Sequential(
        (0): Linear(in_features=49152, out_features=64, bias=True)
        (1): Tanh()
        (2): Linear(in_features=64, out_features=64, bias=True)
        (3): Tanh()
        (4): Linear(in_features=64, out_features=49152, bias=True)
      )
      (t_net): Sequential(
        (0): Linear(in_features=49152, out_features=64, bias=True)
        (1): ReLU()
        (2): Linear(in_features=64, out_features=64, bias=True)
        (3): ReLU()
        (4): Linear(in_features=64, out_features=49152, bias=True)
      )
    )
    (17): BatchNorm()
    (18): LinearMaskedCoupling(
      (s_net): Sequential(
        (0): Linear(in_features=49152, out_features=64, bias=True)
        (1): Tanh()
        (2): Linear(in_features=64, out_features=64, bias=True)
        (3): Tanh()
        (4): Linear(in_features=64, out_features=49152, bias=True)
      )
      (t_net): Sequential(
        (0): Linear(in_features=49152, out_features=64, bias=True)
        (1): ReLU()
        (2): Linear(in_features=64, out_features=64, bias=True)
        (3): ReLU()
        (4): Linear(in_features=64, out_features=49152, bias=True)
      )
    )
    (19): BatchNorm()
    (20): LinearMaskedCoupling(
      (s_net): Sequential(
        (0): Linear(in_features=49152, out_features=64, bias=True)
        (1): Tanh()
        (2): Linear(in_features=64, out_features=64, bias=True)
        (3): Tanh()
        (4): Linear(in_features=64, out_features=49152, bias=True)
      )
      (t_net): Sequential(
        (0): Linear(in_features=49152, out_features=64, bias=True)
        (1): ReLU()
        (2): Linear(in_features=64, out_features=64, bias=True)
        (3): ReLU()
        (4): Linear(in_features=64, out_features=49152, bias=True)
      )
    )
    (21): BatchNorm()
    (22): LinearMaskedCoupling(
      (s_net): Sequential(
        (0): Linear(in_features=49152, out_features=64, bias=True)
        (1): Tanh()
        (2): Linear(in_features=64, out_features=64, bias=True)
        (3): Tanh()
        (4): Linear(in_features=64, out_features=49152, bias=True)
      )
      (t_net): Sequential(
        (0): Linear(in_features=49152, out_features=64, bias=True)
        (1): ReLU()
        (2): Linear(in_features=64, out_features=64, bias=True)
        (3): ReLU()
        (4): Linear(in_features=64, out_features=49152, bias=True)
      )
    )
    (23): BatchNorm()
    (24): LinearMaskedCoupling(
      (s_net): Sequential(
        (0): Linear(in_features=49152, out_features=64, bias=True)
        (1): Tanh()
        (2): Linear(in_features=64, out_features=64, bias=True)
        (3): Tanh()
        (4): Linear(in_features=64, out_features=49152, bias=True)
      )
      (t_net): Sequential(
        (0): Linear(in_features=49152, out_features=64, bias=True)
        (1): ReLU()
        (2): Linear(in_features=64, out_features=64, bias=True)
        (3): ReLU()
        (4): Linear(in_features=64, out_features=49152, bias=True)
      )
    )
    (25): BatchNorm()
    (26): LinearMaskedCoupling(
      (s_net): Sequential(
        (0): Linear(in_features=49152, out_features=64, bias=True)
        (1): Tanh()
        (2): Linear(in_features=64, out_features=64, bias=True)
        (3): Tanh()
        (4): Linear(in_features=64, out_features=49152, bias=True)
      )
      (t_net): Sequential(
        (0): Linear(in_features=49152, out_features=64, bias=True)
        (1): ReLU()
        (2): Linear(in_features=64, out_features=64, bias=True)
        (3): ReLU()
        (4): Linear(in_features=64, out_features=49152, bias=True)
      )
    )
    (27): BatchNorm()
    (28): LinearMaskedCoupling(
      (s_net): Sequential(
        (0): Linear(in_features=49152, out_features=64, bias=True)
        (1): Tanh()
        (2): Linear(in_features=64, out_features=64, bias=True)
        (3): Tanh()
        (4): Linear(in_features=64, out_features=49152, bias=True)
      )
      (t_net): Sequential(
        (0): Linear(in_features=49152, out_features=64, bias=True)
        (1): ReLU()
        (2): Linear(in_features=64, out_features=64, bias=True)
        (3): ReLU()
        (4): Linear(in_features=64, out_features=49152, bias=True)
      )
    )
    (29): BatchNorm()
    (30): LinearMaskedCoupling(
      (s_net): Sequential(
        (0): Linear(in_features=49152, out_features=64, bias=True)
        (1): Tanh()
        (2): Linear(in_features=64, out_features=64, bias=True)
        (3): Tanh()
        (4): Linear(in_features=64, out_features=49152, bias=True)
      )
      (t_net): Sequential(
        (0): Linear(in_features=49152, out_features=64, bias=True)
        (1): ReLU()
        (2): Linear(in_features=64, out_features=64, bias=True)
        (3): ReLU()
        (4): Linear(in_features=64, out_features=49152, bias=True)
      )
    )
    (31): BatchNorm()
    (32): LinearMaskedCoupling(
      (s_net): Sequential(
        (0): Linear(in_features=49152, out_features=64, bias=True)
        (1): Tanh()
        (2): Linear(in_features=64, out_features=64, bias=True)
        (3): Tanh()
        (4): Linear(in_features=64, out_features=49152, bias=True)
      )
      (t_net): Sequential(
        (0): Linear(in_features=49152, out_features=64, bias=True)
        (1): ReLU()
        (2): Linear(in_features=64, out_features=64, bias=True)
        (3): ReLU()
        (4): Linear(in_features=64, out_features=49152, bias=True)
      )
    )
    (33): BatchNorm()
    (34): LinearMaskedCoupling(
      (s_net): Sequential(
        (0): Linear(in_features=49152, out_features=64, bias=True)
        (1): Tanh()
        (2): Linear(in_features=64, out_features=64, bias=True)
        (3): Tanh()
        (4): Linear(in_features=64, out_features=49152, bias=True)
      )
      (t_net): Sequential(
        (0): Linear(in_features=49152, out_features=64, bias=True)
        (1): ReLU()
        (2): Linear(in_features=64, out_features=64, bias=True)
        (3): ReLU()
        (4): Linear(in_features=64, out_features=49152, bias=True)
      )
    )
    (35): BatchNorm()
    (36): LinearMaskedCoupling(
      (s_net): Sequential(
        (0): Linear(in_features=49152, out_features=64, bias=True)
        (1): Tanh()
        (2): Linear(in_features=64, out_features=64, bias=True)
        (3): Tanh()
        (4): Linear(in_features=64, out_features=49152, bias=True)
      )
      (t_net): Sequential(
        (0): Linear(in_features=49152, out_features=64, bias=True)
        (1): ReLU()
        (2): Linear(in_features=64, out_features=64, bias=True)
        (3): ReLU()
        (4): Linear(in_features=64, out_features=49152, bias=True)
      )
    )
    (37): BatchNorm()
    (38): LinearMaskedCoupling(
      (s_net): Sequential(
        (0): Linear(in_features=49152, out_features=64, bias=True)
        (1): Tanh()
        (2): Linear(in_features=64, out_features=64, bias=True)
        (3): Tanh()
        (4): Linear(in_features=64, out_features=49152, bias=True)
      )
      (t_net): Sequential(
        (0): Linear(in_features=49152, out_features=64, bias=True)
        (1): ReLU()
        (2): Linear(in_features=64, out_features=64, bias=True)
        (3): ReLU()
        (4): Linear(in_features=64, out_features=49152, bias=True)
      )
    )
    (39): BatchNorm()
    (40): LinearMaskedCoupling(
      (s_net): Sequential(
        (0): Linear(in_features=49152, out_features=64, bias=True)
        (1): Tanh()
        (2): Linear(in_features=64, out_features=64, bias=True)
        (3): Tanh()
        (4): Linear(in_features=64, out_features=49152, bias=True)
      )
      (t_net): Sequential(
        (0): Linear(in_features=49152, out_features=64, bias=True)
        (1): ReLU()
        (2): Linear(in_features=64, out_features=64, bias=True)
        (3): ReLU()
        (4): Linear(in_features=64, out_features=49152, bias=True)
      )
    )
    (41): BatchNorm()
    (42): LinearMaskedCoupling(
      (s_net): Sequential(
        (0): Linear(in_features=49152, out_features=64, bias=True)
        (1): Tanh()
        (2): Linear(in_features=64, out_features=64, bias=True)
        (3): Tanh()
        (4): Linear(in_features=64, out_features=49152, bias=True)
      )
      (t_net): Sequential(
        (0): Linear(in_features=49152, out_features=64, bias=True)
        (1): ReLU()
        (2): Linear(in_features=64, out_features=64, bias=True)
        (3): ReLU()
        (4): Linear(in_features=64, out_features=49152, bias=True)
      )
    )
    (43): BatchNorm()
    (44): LinearMaskedCoupling(
      (s_net): Sequential(
        (0): Linear(in_features=49152, out_features=64, bias=True)
        (1): Tanh()
        (2): Linear(in_features=64, out_features=64, bias=True)
        (3): Tanh()
        (4): Linear(in_features=64, out_features=49152, bias=True)
      )
      (t_net): Sequential(
        (0): Linear(in_features=49152, out_features=64, bias=True)
        (1): ReLU()
        (2): Linear(in_features=64, out_features=64, bias=True)
        (3): ReLU()
        (4): Linear(in_features=64, out_features=49152, bias=True)
      )
    )
    (45): BatchNorm()
    (46): LinearMaskedCoupling(
      (s_net): Sequential(
        (0): Linear(in_features=49152, out_features=64, bias=True)
        (1): Tanh()
        (2): Linear(in_features=64, out_features=64, bias=True)
        (3): Tanh()
        (4): Linear(in_features=64, out_features=49152, bias=True)
      )
      (t_net): Sequential(
        (0): Linear(in_features=49152, out_features=64, bias=True)
        (1): ReLU()
        (2): Linear(in_features=64, out_features=64, bias=True)
        (3): ReLU()
        (4): Linear(in_features=64, out_features=49152, bias=True)
      )
    )
    (47): BatchNorm()
    (48): LinearMaskedCoupling(
      (s_net): Sequential(
        (0): Linear(in_features=49152, out_features=64, bias=True)
        (1): Tanh()
        (2): Linear(in_features=64, out_features=64, bias=True)
        (3): Tanh()
        (4): Linear(in_features=64, out_features=49152, bias=True)
      )
      (t_net): Sequential(
        (0): Linear(in_features=49152, out_features=64, bias=True)
        (1): ReLU()
        (2): Linear(in_features=64, out_features=64, bias=True)
        (3): ReLU()
        (4): Linear(in_features=64, out_features=49152, bias=True)
      )
    )
    (49): BatchNorm()
    (50): LinearMaskedCoupling(
      (s_net): Sequential(
        (0): Linear(in_features=49152, out_features=64, bias=True)
        (1): Tanh()
        (2): Linear(in_features=64, out_features=64, bias=True)
        (3): Tanh()
        (4): Linear(in_features=64, out_features=49152, bias=True)
      )
      (t_net): Sequential(
        (0): Linear(in_features=49152, out_features=64, bias=True)
        (1): ReLU()
        (2): Linear(in_features=64, out_features=64, bias=True)
        (3): ReLU()
        (4): Linear(in_features=64, out_features=49152, bias=True)
      )
    )
    (51): BatchNorm()
    (52): LinearMaskedCoupling(
      (s_net): Sequential(
        (0): Linear(in_features=49152, out_features=64, bias=True)
        (1): Tanh()
        (2): Linear(in_features=64, out_features=64, bias=True)
        (3): Tanh()
        (4): Linear(in_features=64, out_features=49152, bias=True)
      )
      (t_net): Sequential(
        (0): Linear(in_features=49152, out_features=64, bias=True)
        (1): ReLU()
        (2): Linear(in_features=64, out_features=64, bias=True)
        (3): ReLU()
        (4): Linear(in_features=64, out_features=49152, bias=True)
      )
    )
    (53): BatchNorm()
    (54): LinearMaskedCoupling(
      (s_net): Sequential(
        (0): Linear(in_features=49152, out_features=64, bias=True)
        (1): Tanh()
        (2): Linear(in_features=64, out_features=64, bias=True)
        (3): Tanh()
        (4): Linear(in_features=64, out_features=49152, bias=True)
      )
      (t_net): Sequential(
        (0): Linear(in_features=49152, out_features=64, bias=True)
        (1): ReLU()
        (2): Linear(in_features=64, out_features=64, bias=True)
        (3): ReLU()
        (4): Linear(in_features=64, out_features=49152, bias=True)
      )
    )
    (55): BatchNorm()
    (56): LinearMaskedCoupling(
      (s_net): Sequential(
        (0): Linear(in_features=49152, out_features=64, bias=True)
        (1): Tanh()
        (2): Linear(in_features=64, out_features=64, bias=True)
        (3): Tanh()
        (4): Linear(in_features=64, out_features=49152, bias=True)
      )
      (t_net): Sequential(
        (0): Linear(in_features=49152, out_features=64, bias=True)
        (1): ReLU()
        (2): Linear(in_features=64, out_features=64, bias=True)
        (3): ReLU()
        (4): Linear(in_features=64, out_features=49152, bias=True)
      )
    )
    (57): BatchNorm()
    (58): LinearMaskedCoupling(
      (s_net): Sequential(
        (0): Linear(in_features=49152, out_features=64, bias=True)
        (1): Tanh()
        (2): Linear(in_features=64, out_features=64, bias=True)
        (3): Tanh()
        (4): Linear(in_features=64, out_features=49152, bias=True)
      )
      (t_net): Sequential(
        (0): Linear(in_features=49152, out_features=64, bias=True)
        (1): ReLU()
        (2): Linear(in_features=64, out_features=64, bias=True)
        (3): ReLU()
        (4): Linear(in_features=64, out_features=49152, bias=True)
      )
    )
    (59): BatchNorm()
    (60): LinearMaskedCoupling(
      (s_net): Sequential(
        (0): Linear(in_features=49152, out_features=64, bias=True)
        (1): Tanh()
        (2): Linear(in_features=64, out_features=64, bias=True)
        (3): Tanh()
        (4): Linear(in_features=64, out_features=49152, bias=True)
      )
      (t_net): Sequential(
        (0): Linear(in_features=49152, out_features=64, bias=True)
        (1): ReLU()
        (2): Linear(in_features=64, out_features=64, bias=True)
        (3): ReLU()
        (4): Linear(in_features=64, out_features=49152, bias=True)
      )
    )
    (61): BatchNorm()
    (62): LinearMaskedCoupling(
      (s_net): Sequential(
        (0): Linear(in_features=49152, out_features=64, bias=True)
        (1): Tanh()
        (2): Linear(in_features=64, out_features=64, bias=True)
        (3): Tanh()
        (4): Linear(in_features=64, out_features=49152, bias=True)
      )
      (t_net): Sequential(
        (0): Linear(in_features=49152, out_features=64, bias=True)
        (1): ReLU()
        (2): Linear(in_features=64, out_features=64, bias=True)
        (3): ReLU()
        (4): Linear(in_features=64, out_features=49152, bias=True)
      )
    )
    (63): BatchNorm()
  )
)
{'activation_fn': 'relu',
 'batch_size': 4,
 'channel': -1,
 'cond_label_size': None,
 'conditional': False,
 'data_dir': './data/',
 'dataset': '',
 'device': device(type='cuda', index=0),
 'flip_toy_var_order': False,
 'generate': False,
 'hidden_size': 64,
 'input_dims': torch.Size([3, 128, 128]),
 'input_order': 'random',
 'input_size': 65536,
 'log_interval': 1000,
 'lr': 0.0001,
 'model': 'realnvp',
 'n_blocks': 32,
 'n_components': 1,
 'n_epochs': 50,
 'n_hidden': 1,
 'no_batch_norm': False,
 'no_cuda': False,
 'output_dir': './results/mafencoderTrue_channel-1_nblocks32/',
 'restore_file': None,
 'results_file': 'results.txt',
 'seed': 1,
 'start_epoch': 0,
 'train': True,
 'use_encoder': True}
RealNVP(
  (net): FlowSequential(
    (0): LinearMaskedCoupling(
      (s_net): Sequential(
        (0): Linear(in_features=65536, out_features=64, bias=True)
        (1): Tanh()
        (2): Linear(in_features=64, out_features=64, bias=True)
        (3): Tanh()
        (4): Linear(in_features=64, out_features=65536, bias=True)
      )
      (t_net): Sequential(
        (0): Linear(in_features=65536, out_features=64, bias=True)
        (1): ReLU()
        (2): Linear(in_features=64, out_features=64, bias=True)
        (3): ReLU()
        (4): Linear(in_features=64, out_features=65536, bias=True)
      )
    )
    (1): BatchNorm()
    (2): LinearMaskedCoupling(
      (s_net): Sequential(
        (0): Linear(in_features=65536, out_features=64, bias=True)
        (1): Tanh()
        (2): Linear(in_features=64, out_features=64, bias=True)
        (3): Tanh()
        (4): Linear(in_features=64, out_features=65536, bias=True)
      )
      (t_net): Sequential(
        (0): Linear(in_features=65536, out_features=64, bias=True)
        (1): ReLU()
        (2): Linear(in_features=64, out_features=64, bias=True)
        (3): ReLU()
        (4): Linear(in_features=64, out_features=65536, bias=True)
      )
    )
    (3): BatchNorm()
    (4): LinearMaskedCoupling(
      (s_net): Sequential(
        (0): Linear(in_features=65536, out_features=64, bias=True)
        (1): Tanh()
        (2): Linear(in_features=64, out_features=64, bias=True)
        (3): Tanh()
        (4): Linear(in_features=64, out_features=65536, bias=True)
      )
      (t_net): Sequential(
        (0): Linear(in_features=65536, out_features=64, bias=True)
        (1): ReLU()
        (2): Linear(in_features=64, out_features=64, bias=True)
        (3): ReLU()
        (4): Linear(in_features=64, out_features=65536, bias=True)
      )
    )
    (5): BatchNorm()
    (6): LinearMaskedCoupling(
      (s_net): Sequential(
        (0): Linear(in_features=65536, out_features=64, bias=True)
        (1): Tanh()
        (2): Linear(in_features=64, out_features=64, bias=True)
        (3): Tanh()
        (4): Linear(in_features=64, out_features=65536, bias=True)
      )
      (t_net): Sequential(
        (0): Linear(in_features=65536, out_features=64, bias=True)
        (1): ReLU()
        (2): Linear(in_features=64, out_features=64, bias=True)
        (3): ReLU()
        (4): Linear(in_features=64, out_features=65536, bias=True)
      )
    )
    (7): BatchNorm()
    (8): LinearMaskedCoupling(
      (s_net): Sequential(
        (0): Linear(in_features=65536, out_features=64, bias=True)
        (1): Tanh()
        (2): Linear(in_features=64, out_features=64, bias=True)
        (3): Tanh()
        (4): Linear(in_features=64, out_features=65536, bias=True)
      )
      (t_net): Sequential(
        (0): Linear(in_features=65536, out_features=64, bias=True)
        (1): ReLU()
        (2): Linear(in_features=64, out_features=64, bias=True)
        (3): ReLU()
        (4): Linear(in_features=64, out_features=65536, bias=True)
      )
    )
    (9): BatchNorm()
    (10): LinearMaskedCoupling(
      (s_net): Sequential(
        (0): Linear(in_features=65536, out_features=64, bias=True)
        (1): Tanh()
        (2): Linear(in_features=64, out_features=64, bias=True)
        (3): Tanh()
        (4): Linear(in_features=64, out_features=65536, bias=True)
      )
      (t_net): Sequential(
        (0): Linear(in_features=65536, out_features=64, bias=True)
        (1): ReLU()
        (2): Linear(in_features=64, out_features=64, bias=True)
        (3): ReLU()
        (4): Linear(in_features=64, out_features=65536, bias=True)
      )
    )
    (11): BatchNorm()
    (12): LinearMaskedCoupling(
      (s_net): Sequential(
        (0): Linear(in_features=65536, out_features=64, bias=True)
        (1): Tanh()
        (2): Linear(in_features=64, out_features=64, bias=True)
        (3): Tanh()
        (4): Linear(in_features=64, out_features=65536, bias=True)
      )
      (t_net): Sequential(
        (0): Linear(in_features=65536, out_features=64, bias=True)
        (1): ReLU()
        (2): Linear(in_features=64, out_features=64, bias=True)
        (3): ReLU()
        (4): Linear(in_features=64, out_features=65536, bias=True)
      )
    )
    (13): BatchNorm()
    (14): LinearMaskedCoupling(
      (s_net): Sequential(
        (0): Linear(in_features=65536, out_features=64, bias=True)
        (1): Tanh()
        (2): Linear(in_features=64, out_features=64, bias=True)
        (3): Tanh()
        (4): Linear(in_features=64, out_features=65536, bias=True)
      )
      (t_net): Sequential(
        (0): Linear(in_features=65536, out_features=64, bias=True)
        (1): ReLU()
        (2): Linear(in_features=64, out_features=64, bias=True)
        (3): ReLU()
        (4): Linear(in_features=64, out_features=65536, bias=True)
      )
    )
    (15): BatchNorm()
    (16): LinearMaskedCoupling(
      (s_net): Sequential(
        (0): Linear(in_features=65536, out_features=64, bias=True)
        (1): Tanh()
        (2): Linear(in_features=64, out_features=64, bias=True)
        (3): Tanh()
        (4): Linear(in_features=64, out_features=65536, bias=True)
      )
      (t_net): Sequential(
        (0): Linear(in_features=65536, out_features=64, bias=True)
        (1): ReLU()
        (2): Linear(in_features=64, out_features=64, bias=True)
        (3): ReLU()
        (4): Linear(in_features=64, out_features=65536, bias=True)
      )
    )
    (17): BatchNorm()
    (18): LinearMaskedCoupling(
      (s_net): Sequential(
        (0): Linear(in_features=65536, out_features=64, bias=True)
        (1): Tanh()
        (2): Linear(in_features=64, out_features=64, bias=True)
        (3): Tanh()
        (4): Linear(in_features=64, out_features=65536, bias=True)
      )
      (t_net): Sequential(
        (0): Linear(in_features=65536, out_features=64, bias=True)
        (1): ReLU()
        (2): Linear(in_features=64, out_features=64, bias=True)
        (3): ReLU()
        (4): Linear(in_features=64, out_features=65536, bias=True)
      )
    )
    (19): BatchNorm()
    (20): LinearMaskedCoupling(
      (s_net): Sequential(
        (0): Linear(in_features=65536, out_features=64, bias=True)
        (1): Tanh()
        (2): Linear(in_features=64, out_features=64, bias=True)
        (3): Tanh()
        (4): Linear(in_features=64, out_features=65536, bias=True)
      )
      (t_net): Sequential(
        (0): Linear(in_features=65536, out_features=64, bias=True)
        (1): ReLU()
        (2): Linear(in_features=64, out_features=64, bias=True)
        (3): ReLU()
        (4): Linear(in_features=64, out_features=65536, bias=True)
      )
    )
    (21): BatchNorm()
    (22): LinearMaskedCoupling(
      (s_net): Sequential(
        (0): Linear(in_features=65536, out_features=64, bias=True)
        (1): Tanh()
        (2): Linear(in_features=64, out_features=64, bias=True)
        (3): Tanh()
        (4): Linear(in_features=64, out_features=65536, bias=True)
      )
      (t_net): Sequential(
        (0): Linear(in_features=65536, out_features=64, bias=True)
        (1): ReLU()
        (2): Linear(in_features=64, out_features=64, bias=True)
        (3): ReLU()
        (4): Linear(in_features=64, out_features=65536, bias=True)
      )
    )
    (23): BatchNorm()
    (24): LinearMaskedCoupling(
      (s_net): Sequential(
        (0): Linear(in_features=65536, out_features=64, bias=True)
        (1): Tanh()
        (2): Linear(in_features=64, out_features=64, bias=True)
        (3): Tanh()
        (4): Linear(in_features=64, out_features=65536, bias=True)
      )
      (t_net): Sequential(
        (0): Linear(in_features=65536, out_features=64, bias=True)
        (1): ReLU()
        (2): Linear(in_features=64, out_features=64, bias=True)
        (3): ReLU()
        (4): Linear(in_features=64, out_features=65536, bias=True)
      )
    )
    (25): BatchNorm()
    (26): LinearMaskedCoupling(
      (s_net): Sequential(
        (0): Linear(in_features=65536, out_features=64, bias=True)
        (1): Tanh()
        (2): Linear(in_features=64, out_features=64, bias=True)
        (3): Tanh()
        (4): Linear(in_features=64, out_features=65536, bias=True)
      )
      (t_net): Sequential(
        (0): Linear(in_features=65536, out_features=64, bias=True)
        (1): ReLU()
        (2): Linear(in_features=64, out_features=64, bias=True)
        (3): ReLU()
        (4): Linear(in_features=64, out_features=65536, bias=True)
      )
    )
    (27): BatchNorm()
    (28): LinearMaskedCoupling(
      (s_net): Sequential(
        (0): Linear(in_features=65536, out_features=64, bias=True)
        (1): Tanh()
        (2): Linear(in_features=64, out_features=64, bias=True)
        (3): Tanh()
        (4): Linear(in_features=64, out_features=65536, bias=True)
      )
      (t_net): Sequential(
        (0): Linear(in_features=65536, out_features=64, bias=True)
        (1): ReLU()
        (2): Linear(in_features=64, out_features=64, bias=True)
        (3): ReLU()
        (4): Linear(in_features=64, out_features=65536, bias=True)
      )
    )
    (29): BatchNorm()
    (30): LinearMaskedCoupling(
      (s_net): Sequential(
        (0): Linear(in_features=65536, out_features=64, bias=True)
        (1): Tanh()
        (2): Linear(in_features=64, out_features=64, bias=True)
        (3): Tanh()
        (4): Linear(in_features=64, out_features=65536, bias=True)
      )
      (t_net): Sequential(
        (0): Linear(in_features=65536, out_features=64, bias=True)
        (1): ReLU()
        (2): Linear(in_features=64, out_features=64, bias=True)
        (3): ReLU()
        (4): Linear(in_features=64, out_features=65536, bias=True)
      )
    )
    (31): BatchNorm()
    (32): LinearMaskedCoupling(
      (s_net): Sequential(
        (0): Linear(in_features=65536, out_features=64, bias=True)
        (1): Tanh()
        (2): Linear(in_features=64, out_features=64, bias=True)
        (3): Tanh()
        (4): Linear(in_features=64, out_features=65536, bias=True)
      )
      (t_net): Sequential(
        (0): Linear(in_features=65536, out_features=64, bias=True)
        (1): ReLU()
        (2): Linear(in_features=64, out_features=64, bias=True)
        (3): ReLU()
        (4): Linear(in_features=64, out_features=65536, bias=True)
      )
    )
    (33): BatchNorm()
    (34): LinearMaskedCoupling(
      (s_net): Sequential(
        (0): Linear(in_features=65536, out_features=64, bias=True)
        (1): Tanh()
        (2): Linear(in_features=64, out_features=64, bias=True)
        (3): Tanh()
        (4): Linear(in_features=64, out_features=65536, bias=True)
      )
      (t_net): Sequential(
        (0): Linear(in_features=65536, out_features=64, bias=True)
        (1): ReLU()
        (2): Linear(in_features=64, out_features=64, bias=True)
        (3): ReLU()
        (4): Linear(in_features=64, out_features=65536, bias=True)
      )
    )
    (35): BatchNorm()
    (36): LinearMaskedCoupling(
      (s_net): Sequential(
        (0): Linear(in_features=65536, out_features=64, bias=True)
        (1): Tanh()
        (2): Linear(in_features=64, out_features=64, bias=True)
        (3): Tanh()
        (4): Linear(in_features=64, out_features=65536, bias=True)
      )
      (t_net): Sequential(
        (0): Linear(in_features=65536, out_features=64, bias=True)
        (1): ReLU()
        (2): Linear(in_features=64, out_features=64, bias=True)
        (3): ReLU()
        (4): Linear(in_features=64, out_features=65536, bias=True)
      )
    )
    (37): BatchNorm()
    (38): LinearMaskedCoupling(
      (s_net): Sequential(
        (0): Linear(in_features=65536, out_features=64, bias=True)
        (1): Tanh()
        (2): Linear(in_features=64, out_features=64, bias=True)
        (3): Tanh()
        (4): Linear(in_features=64, out_features=65536, bias=True)
      )
      (t_net): Sequential(
        (0): Linear(in_features=65536, out_features=64, bias=True)
        (1): ReLU()
        (2): Linear(in_features=64, out_features=64, bias=True)
        (3): ReLU()
        (4): Linear(in_features=64, out_features=65536, bias=True)
      )
    )
    (39): BatchNorm()
    (40): LinearMaskedCoupling(
      (s_net): Sequential(
        (0): Linear(in_features=65536, out_features=64, bias=True)
        (1): Tanh()
        (2): Linear(in_features=64, out_features=64, bias=True)
        (3): Tanh()
        (4): Linear(in_features=64, out_features=65536, bias=True)
      )
      (t_net): Sequential(
        (0): Linear(in_features=65536, out_features=64, bias=True)
        (1): ReLU()
        (2): Linear(in_features=64, out_features=64, bias=True)
        (3): ReLU()
        (4): Linear(in_features=64, out_features=65536, bias=True)
      )
    )
    (41): BatchNorm()
    (42): LinearMaskedCoupling(
      (s_net): Sequential(
        (0): Linear(in_features=65536, out_features=64, bias=True)
        (1): Tanh()
        (2): Linear(in_features=64, out_features=64, bias=True)
        (3): Tanh()
        (4): Linear(in_features=64, out_features=65536, bias=True)
      )
      (t_net): Sequential(
        (0): Linear(in_features=65536, out_features=64, bias=True)
        (1): ReLU()
        (2): Linear(in_features=64, out_features=64, bias=True)
        (3): ReLU()
        (4): Linear(in_features=64, out_features=65536, bias=True)
      )
    )
    (43): BatchNorm()
    (44): LinearMaskedCoupling(
      (s_net): Sequential(
        (0): Linear(in_features=65536, out_features=64, bias=True)
        (1): Tanh()
        (2): Linear(in_features=64, out_features=64, bias=True)
        (3): Tanh()
        (4): Linear(in_features=64, out_features=65536, bias=True)
      )
      (t_net): Sequential(
        (0): Linear(in_features=65536, out_features=64, bias=True)
        (1): ReLU()
        (2): Linear(in_features=64, out_features=64, bias=True)
        (3): ReLU()
        (4): Linear(in_features=64, out_features=65536, bias=True)
      )
    )
    (45): BatchNorm()
    (46): LinearMaskedCoupling(
      (s_net): Sequential(
        (0): Linear(in_features=65536, out_features=64, bias=True)
        (1): Tanh()
        (2): Linear(in_features=64, out_features=64, bias=True)
        (3): Tanh()
        (4): Linear(in_features=64, out_features=65536, bias=True)
      )
      (t_net): Sequential(
        (0): Linear(in_features=65536, out_features=64, bias=True)
        (1): ReLU()
        (2): Linear(in_features=64, out_features=64, bias=True)
        (3): ReLU()
        (4): Linear(in_features=64, out_features=65536, bias=True)
      )
    )
    (47): BatchNorm()
    (48): LinearMaskedCoupling(
      (s_net): Sequential(
        (0): Linear(in_features=65536, out_features=64, bias=True)
        (1): Tanh()
        (2): Linear(in_features=64, out_features=64, bias=True)
        (3): Tanh()
        (4): Linear(in_features=64, out_features=65536, bias=True)
      )
      (t_net): Sequential(
        (0): Linear(in_features=65536, out_features=64, bias=True)
        (1): ReLU()
        (2): Linear(in_features=64, out_features=64, bias=True)
        (3): ReLU()
        (4): Linear(in_features=64, out_features=65536, bias=True)
      )
    )
    (49): BatchNorm()
    (50): LinearMaskedCoupling(
      (s_net): Sequential(
        (0): Linear(in_features=65536, out_features=64, bias=True)
        (1): Tanh()
        (2): Linear(in_features=64, out_features=64, bias=True)
        (3): Tanh()
        (4): Linear(in_features=64, out_features=65536, bias=True)
      )
      (t_net): Sequential(
        (0): Linear(in_features=65536, out_features=64, bias=True)
        (1): ReLU()
        (2): Linear(in_features=64, out_features=64, bias=True)
        (3): ReLU()
        (4): Linear(in_features=64, out_features=65536, bias=True)
      )
    )
    (51): BatchNorm()
    (52): LinearMaskedCoupling(
      (s_net): Sequential(
        (0): Linear(in_features=65536, out_features=64, bias=True)
        (1): Tanh()
        (2): Linear(in_features=64, out_features=64, bias=True)
        (3): Tanh()
        (4): Linear(in_features=64, out_features=65536, bias=True)
      )
      (t_net): Sequential(
        (0): Linear(in_features=65536, out_features=64, bias=True)
        (1): ReLU()
        (2): Linear(in_features=64, out_features=64, bias=True)
        (3): ReLU()
        (4): Linear(in_features=64, out_features=65536, bias=True)
      )
    )
    (53): BatchNorm()
    (54): LinearMaskedCoupling(
      (s_net): Sequential(
        (0): Linear(in_features=65536, out_features=64, bias=True)
        (1): Tanh()
        (2): Linear(in_features=64, out_features=64, bias=True)
        (3): Tanh()
        (4): Linear(in_features=64, out_features=65536, bias=True)
      )
      (t_net): Sequential(
        (0): Linear(in_features=65536, out_features=64, bias=True)
        (1): ReLU()
        (2): Linear(in_features=64, out_features=64, bias=True)
        (3): ReLU()
        (4): Linear(in_features=64, out_features=65536, bias=True)
      )
    )
    (55): BatchNorm()
    (56): LinearMaskedCoupling(
      (s_net): Sequential(
        (0): Linear(in_features=65536, out_features=64, bias=True)
        (1): Tanh()
        (2): Linear(in_features=64, out_features=64, bias=True)
        (3): Tanh()
        (4): Linear(in_features=64, out_features=65536, bias=True)
      )
      (t_net): Sequential(
        (0): Linear(in_features=65536, out_features=64, bias=True)
        (1): ReLU()
        (2): Linear(in_features=64, out_features=64, bias=True)
        (3): ReLU()
        (4): Linear(in_features=64, out_features=65536, bias=True)
      )
    )
    (57): BatchNorm()
    (58): LinearMaskedCoupling(
      (s_net): Sequential(
        (0): Linear(in_features=65536, out_features=64, bias=True)
        (1): Tanh()
        (2): Linear(in_features=64, out_features=64, bias=True)
        (3): Tanh()
        (4): Linear(in_features=64, out_features=65536, bias=True)
      )
      (t_net): Sequential(
        (0): Linear(in_features=65536, out_features=64, bias=True)
        (1): ReLU()
        (2): Linear(in_features=64, out_features=64, bias=True)
        (3): ReLU()
        (4): Linear(in_features=64, out_features=65536, bias=True)
      )
    )
    (59): BatchNorm()
    (60): LinearMaskedCoupling(
      (s_net): Sequential(
        (0): Linear(in_features=65536, out_features=64, bias=True)
        (1): Tanh()
        (2): Linear(in_features=64, out_features=64, bias=True)
        (3): Tanh()
        (4): Linear(in_features=64, out_features=65536, bias=True)
      )
      (t_net): Sequential(
        (0): Linear(in_features=65536, out_features=64, bias=True)
        (1): ReLU()
        (2): Linear(in_features=64, out_features=64, bias=True)
        (3): ReLU()
        (4): Linear(in_features=64, out_features=65536, bias=True)
      )
    )
    (61): BatchNorm()
    (62): LinearMaskedCoupling(
      (s_net): Sequential(
        (0): Linear(in_features=65536, out_features=64, bias=True)
        (1): Tanh()
        (2): Linear(in_features=64, out_features=64, bias=True)
        (3): Tanh()
        (4): Linear(in_features=64, out_features=65536, bias=True)
      )
      (t_net): Sequential(
        (0): Linear(in_features=65536, out_features=64, bias=True)
        (1): ReLU()
        (2): Linear(in_features=64, out_features=64, bias=True)
        (3): ReLU()
        (4): Linear(in_features=64, out_features=65536, bias=True)
      )
    )
    (63): BatchNorm()
  )
)
Evaluate (epoch 0) -- logp(x) = -82207.102 +/- 459.265
Evaluate (epoch 0) -- logp(x) = -131263192.000 +/- 2208194.500
Evaluate (epoch 0) -- logp(x) = -3023682.750 +/- 397858.000
Evaluate (epoch 0) -- logp(x) = -294254208.000 +/- 4687390.000
Evaluate (epoch 0) -- logp(x) = -79395.578 +/- 42.422
Evaluate (epoch 0) -- logp(x) = 83021.586 +/- 656.738
…
