…
 'flip_toy_var_order': False,
 'generate': False,
 'hidden_size': 64,
 'input_dims': torch.Size([3, 128, 128]),
 'input_order': 'random',
 'input_size': 49152,
 'log_interval': 1000,
 'lr': 0.0001,
 'model': 'realnvp',
 'n_blocks': 32,
 'n_components': 1,
 'n_epochs': 50,
 'n_hidden': 1,
 'no_batch_norm': False,
 'no_cuda': False,
 'output_dir': './results/mafencoderFalse_channel-1_nblocks32/',
 'restore_file': None,
 'results_file': 'results.txt',
 'seed': 1,
 'start_epoch': 0,
 'train': True,
 'use_encoder': False}
RealNVP(
  (net): FlowSequential(
    (0): LinearMaskedCoupling(
      (s_net): Sequential(
        (0): Linear(in_features=49152, out_features=64, bias=True)
        (1): Tanh()
        (2): Linear(in_features=64, out_features=64, bias=True)
        (3): Tanh()
        (4): Linear(in_features=64, out_features=49152, bias=True)
      )
      (t_net): Sequential(
        (0): Linear(in_features=49152, out_features=64, bias=True)
        (1): ReLU()
        (2): Linear(in_features=64, out_features=64, bias=True)
        (3): ReLU()
        (4): Linear(in_features=64, out_features=49152, bias=True)
      )
    )
    (1): BatchNorm()
    (2): LinearMaskedCoupling(
      (s_net): Sequential(
        (0): Linear(in_features=49152, out_features=64, bias=True)
        (1): Tanh()
        (2): Linear(in_features=64, out_features=64, bias=True)
        (3): Tanh()
        (4): Linear(in_features=64, out_features=49152, bias=True)
      )
      (t_net): Sequential(
        (0): Linear(in_features=49152, out_features=64, bias=True)
        (1): ReLU()
        (2): Linear(in_features=64, out_features=64, bias=True)
        (3): ReLU()
        (4): Linear(in_features=64, out_features=49152, bias=True)
      )
    )
    (3): BatchNorm()
    (4): LinearMaskedCoupling(
      (s_net): Sequential(
        (0): Linear(in_features=49152, out_features=64, bias=True)
        (1): Tanh()
        (2): Linear(in_features=64, out_features=64, bias=True)
        (3): Tanh()
        (4): Linear(in_features=64, out_features=49152, bias=True)
      )
      (t_net): Sequential(
        (0): Linear(in_features=49152, out_features=64, bias=True)
        (1): ReLU()
        (2): Linear(in_features=64, out_features=64, bias=True)
        (3): ReLU()
        (4): Linear(in_features=64, out_features=49152, bias=True)
      )
    )
    (5): BatchNorm()
    (6): LinearMaskedCoupling(
      (s_net): Sequential(
        (0): Linear(in_features=49152, out_features=64, bias=True)
        (1): Tanh()
        (2): Linear(in_features=64, out_features=64, bias=True)
        (3): Tanh()
        (4): Linear(in_features=64, out_features=49152, bias=True)
      )
      (t_net): Sequential(
        (0): Linear(in_features=49152, out_features=64, bias=True)
        (1): ReLU()
        (2): Linear(in_features=64, out_features=64, bias=True)
        (3): ReLU()
        (4): Linear(in_features=64, out_features=49152, bias=True)
      )
    )
    (7): BatchNorm()
    (8): LinearMaskedCoupling(
      (s_net): Sequential(
        (0): Linear(in_features=49152, out_features=64, bias=True)
        (1): Tanh()
        (2): Linear(in_features=64, out_features=64, bias=True)
        (3): Tanh()
        (4): Linear(in_features=64, out_features=49152, bias=True)
      )
      (t_net): Sequential(
        (0): Linear(in_features=49152, out_features=64, bias=True)
        (1): ReLU()
        (2): Linear(in_features=64, out_features=64, bias=True)
        (3): ReLU()
        (4): Linear(in_features=64, out_features=49152, bias=True)
      )
    )
    (9): BatchNorm()
    (10): LinearMaskedCoupling(
      (s_net): Sequential(
        (0): Linear(in_features=49152, out_features=64, bias=True)
        (1): Tanh()
        (2): Linear(in_features=64, out_features=64, bias=True)
        (3): Tanh()
        (4): Linear(in_features=64, out_features=49152, bias=True)
      )
      (t_net): Sequential(
        (0): Linear(in_features=49152, out_features=64, bias=True)
        (1): ReLU()
        (2): Linear(in_features=64, out_features=64, bias=True)
        (3): ReLU()
        (4): Linear(in_features=64, out_features=49152, bias=True)
      )
    )
    (11): BatchNorm()
    (12): LinearMaskedCoupling(
      (s_net): Sequential(
        (0): Linear(in_features=49152, out_features=64, bias=True)
        (1): Tanh()
        (2): Linear(in_features=64, out_features=64, bias=True)
        (3): Tanh()
        (4): Linear(in_features=64, out_features=49152, bias=True)
      )
      (t_net): Sequential(
        (0): Linear(in_features=49152, out_features=64, bias=True)
        (1): ReLU()
        (2): Linear(in_features=64, out_features=64, bias=True)
        (3): ReLU()
        (4): Linear(in_features=64, out_features=49152, bias=True)
      )
    )
    (13): BatchNorm()
    (14): LinearMaskedCoupling(
      (s_net): Sequential(
        (0): Linear(in_features=49152, out_features=64, bias=True)
        (1): Tanh()
        (2): Linear(in_features=64, out_features=64, bias=True)
        (3): Tanh()
        (4): Linear(in_features=64, out_features=49152, bias=True)
      )
      (t_net): Sequential(
        (0): Linear(in_features=49152, out_features=64, bias=True)
        (1): ReLU()
        (2): Linear(in_features=64, out_features=64, bias=True)
        (3): ReLU()
        (4): Linear(in_features=64, out_features=49152, bias=True)
      )
    )
    (15): BatchNorm()
    (16): LinearMaskedCoupling(
      (s_net): Sequential(
        (0): Linear(in_features=49152, out_features=64, bias=True)
        (1): Tanh()
        (2): Linear(in_features=64, out_features=64, bias=True)
        (3): Tanh()
        (4): Linear(in_features=64, out_features=49152, bias=True)
      )
      (t_net): Sequential(
        (0): Linear(in_features=49152, out_features=64, bias=True)
        (1): ReLU()
        (2): Linear(in_features=64, out_features=64, bias=True)
        (3): ReLU()
        (4): Linear(in_features=64, out_features=49152, bias=True)
      )
    )
    (17): BatchNorm()
    (18): LinearMaskedCoupling(
      (s_net): Sequential(
        (0): Linear(in_features=49152, out_features=64, bias=True)
        (1): Tanh()
        (2): Linear(in_features=64, out_features=64, bias=True)
        (3): Tanh()
        (4): Linear(in_features=64, out_features=49152, bias=True)
      )
      (t_net): Sequential(
        (0): Linear(in_features=49152, out_features=64, bias=True)
        (1): ReLU()
        (2): Linear(in_features=64, out_features=64, bias=True)
        (3): ReLU()
        (4): Linear(in_features=64, out_features=49152, bias=True)
      )
    )
    (19): BatchNorm()
    (20): LinearMaskedCoupling(
      (s_net): Sequential(
        (0): Linear(in_features=49152, out_features=64, bias=True)
        (1): Tanh()
        (2): Linear(in_features=64, out_features=64, bias=True)
        (3): Tanh()
        (4): Linear(in_features=64, out_features=49152, bias=True)
      )
      (t_net): Sequential(
        (0): Linear(in_features=49152, out_features=64, bias=True)
        (1): ReLU()
        (2): Linear(in_features=64, out_features=64, bias=True)
        (3): ReLU()
        (4): Linear(in_features=64, out_features=49152, bias=True)
      )
    )
    (21): BatchNorm()
    (22): LinearMaskedCoupling(
      (s_net): Sequential(
        (0): Linear(in_features=49152, out_features=64, bias=True)
        (1): Tanh()
        (2): Linear(in_features=64, out_features=64, bias=True)
        (3): Tanh()
        (4): Linear(in_features=64, out_features=49152, bias=True)
      )
      (t_net): Sequential(
        (0): Linear(in_features=49152, out_features=64, bias=True)
        (1): ReLU()
        (2): Linear(in_features=64, out_features=64, bias=True)
        (3): ReLU()
        (4): Linear(in_features=64, out_features=49152, bias=True)
      )
    )
    (23): BatchNorm()
    (24): LinearMaskedCoupling(
      (s_net): Sequential(
        (0): Linear(in_features=49152, out_features=64, bias=True)
        (1): Tanh()
        (2): Linear(in_features=64, out_features=64, bias=True)
        (3): Tanh()
        (4): Linear(in_features=64, out_features=49152, bias=True)
      )
      (t_net): Sequential(
        (0): Linear(in_features=49152, out_features=64, bias=True)
        (1): ReLU()
        (2): Linear(in_features=64, out_features=64, bias=True)
        (3): ReLU()
        (4): Linear(in_features=64, out_features=49152, bias=True)
      )
    )
    (25): BatchNorm()
    (26): LinearMaskedCoupling(
      (s_net): Sequential(
        (0): Linear(in_features=49152, out_features=64, bias=True)
        (1): Tanh()
        (2): Linear(in_features=64, out_features=64, bias=True)
        (3): Tanh()
        (4): Linear(in_features=64, out_features=49152, bias=True)
      )
      (t_net): Sequential(
        (0): Linear(in_features=49152, out_features=64, bias=True)
        (1): ReLU()
        (2): Linear(in_features=64, out_features=64, bias=True)
        (3): ReLU()
        (4): Linear(in_features=64, out_features=49152, bias=True)
      )
    )
    (27): BatchNorm()
    (28): LinearMaskedCoupling(
      (s_net): Sequential(
        (0): Linear(in_features=49152, out_features=64, bias=True)
        (1): Tanh()
        (2): Linear(in_features=64, out_features=64, bias=True)
        (3): Tanh()
        (4): Linear(in_features=64, out_features=49152, bias=True)
      )
      (t_net): Sequential(
        (0): Linear(in_features=49152, out_features=64, bias=True)
        (1): ReLU()
        (2): Linear(in_features=64, out_features=64, bias=True)
        (3): ReLU()
        (4): Linear(in_features=64, out_features=49152, bias=True)
      )
    )
    (29): BatchNorm()
    (30): LinearMaskedCoupling(
      (s_net): Sequential(
        (0): Linear(in_features=49152, out_features=64, bias=True)
        (1): Tanh()
        (2): Linear(in_features=64, out_features=64, bias=True)
        (3): Tanh()
        (4): Linear(in_features=64, out_features=49152, bias=True)
      )
      (t_net): Sequential(
        (0): Linear(in_features=49152, out_features=64, bias=True)
        (1): ReLU()
        (2): Linear(in_features=64, out_features=64, bias=True)
        (3): ReLU()
        (4): Linear(in_features=64, out_features=49152, bias=True)
      )
    )
    (31): BatchNorm()
    (32): LinearMaskedCoupling(
      (s_net): Sequential(
        (0): Linear(in_features=49152, out_features=64, bias=True)
        (1): Tanh()
        (2): Linear(in_features=64, out_features=64, bias=True)
        (3): Tanh()
        (4): Linear(in_features=64, out_features=49152, bias=True)
      )
      (t_net): Sequential(
        (0): Linear(in_features=49152, out_features=64, bias=True)
        (1): ReLU()
        (2): Linear(in_features=64, out_features=64, bias=True)
        (3): ReLU()
        (4): Linear(in_features=64, out_features=49152, bias=True)
      )
    )
    (33): BatchNorm()
    (34): LinearMaskedCoupling(
      (s_net): Sequential(
        (0): Linear(in_features=49152, out_features=64, bias=True)
        (1): Tanh()
        (2): Linear(in_features=64, out_features=64, bias=True)
        (3): Tanh()
        (4): Linear(in_features=64, out_features=49152, bias=True)
      )
      (t_net): Sequential(
        (0): Linear(in_features=49152, out_features=64, bias=True)
        (1): ReLU()
        (2): Linear(in_features=64, out_features=64, bias=True)
        (3): ReLU()
        (4): Linear(in_features=64, out_features=49152, bias=True)
      )
    )
    (35): BatchNorm()
    (36): LinearMaskedCoupling(
      (s_net): Sequential(
        (0): Linear(in_features=49152, out_features=64, bias=True)
        (1): Tanh()
        (2): Linear(in_features=64, out_features=64, bias=True)
        (3): Tanh()
        (4): Linear(in_features=64, out_features=49152, bias=True)
      )
      (t_net): Sequential(
        (0): Linear(in_features=49152, out_features=64, bias=True)
        (1): ReLU()
        (2): Linear(in_features=64, out_features=64, bias=True)
        (3): ReLU()
        (4): Linear(in_features=64, out_features=49152, bias=True)
      )
    )
    (37): BatchNorm()
    (38): LinearMaskedCoupling(
      (s_net): Sequential(
        (0): Linear(in_features=49152, out_features=64, bias=True)
        (1): Tanh()
        (2): Linear(in_features=64, out_features=64, bias=True)
        (3): Tanh()
        (4): Linear(in_features=64, out_features=49152, bias=True)
      )
      (t_net): Sequential(
        (0): Linear(in_features=49152, out_features=64, bias=True)
        (1): ReLU()
        (2): Linear(in_features=64, out_features=64, bias=True)
        (3): ReLU()
        (4): Linear(in_features=64, out_features=49152, bias=True)
      )
    )
    (39): BatchNorm()
    (40): LinearMaskedCoupling(
      (s_net): Sequential(
        (0): Linear(in_features=49152, out_features=64, bias=True)
        (1): Tanh()
        (2): Linear(in_features=64, out_features=64, bias=True)
        (3): Tanh()
        (4): Linear(in_features=64, out_features=49152, bias=True)
      )
      (t_net): Sequential(
        (0): Linear(in_features=49152, out_features=64, bias=True)
        (1): ReLU()
        (2): Linear(in_features=64, out_features=64, bias=True)
        (3): ReLU()
        (4): Linear(in_features=64, out_features=49152, bias=True)
      )
    )
    (41): BatchNorm()
    (42): LinearMaskedCoupling(
      (s_net): Sequential(
        (0): Linear(in_features=49152, out_features=64, bias=True)
        (1): Tanh()
        (2): Linear(in_features=64, out_features=64, bias=True)
        (3): Tanh()
        (4): Linear(in_features=64, out_features=49152, bias=True)
      )
      (t_net): Sequential(
        (0): Linear(in_features=49152, out_features=64, bias=True)
        (1): ReLU()
        (2): Linear(in_features=64, out_features=64, bias=True)
        (3): ReLU()
        (4): Linear(in_features=64, out_features=49152, bias=True)
      )
    )
    (43): BatchNorm()
    (44): LinearMaskedCoupling(
      (s_net): Sequential(
        (0): Linear(in_features=49152, out_features=64, bias=True)
        (1): Tanh()
        (2): Linear(in_features=64, out_features=64, bias=True)
        (3): Tanh()
        (4): Linear(in_features=64, out_features=49152, bias=True)
      )
      (t_net): Sequential(
        (0): Linear(in_features=49152, out_features=64, bias=True)
        (1): ReLU()
        (2): Linear(in_features=64, out_features=64, bias=True)
        (3): ReLU()
        (4): Linear(in_features=64, out_features=49152, bias=True)
      )
    )
    (45): BatchNorm()
    (46): LinearMaskedCoupling(
      (s_net): Sequential(
        (0): Linear(in_features=49152, out_features=64, bias=True)
        (1): Tanh()
        (2): Linear(in_features=64, out_features=64, bias=True)
        (3): Tanh()
        (4): Linear(in_features=64, out_features=49152, bias=True)
      )
      (t_net): Sequential(
        (0): Linear(in_features=49152, out_features=64, bias=True)
        (1): ReLU()
        (2): Linear(in_features=64, out_features=64, bias=True)
        (3): ReLU()
        (4): Linear(in_features=64, out_features=49152, bias=True)
      )
    )
    (47): BatchNorm()
    (48): LinearMaskedCoupling(
      (s_net): Sequential(
        (0): Linear(in_features=49152, out_features=64, bias=True)
        (1): Tanh()
        (2): Linear(in_features=64, out_features=64, bias=True)
        (3): Tanh()
        (4): Linear(in_features=64, out_features=49152, bias=True)
      )
      (t_net): Sequential(
        (0): Linear(in_features=49152, out_features=64, bias=True)
        (1): ReLU()
        (2): Linear(in_features=64, out_features=64, bias=True)
        (3): ReLU()
        (4): Linear(in_features=64, out_features=49152, bias=True)
      )
    )
    (49): BatchNorm()
    (50): LinearMaskedCoupling(
      (s_net): Sequential(
        (0): Linear(in_features=49152, out_features=64, bias=True)
        (1): Tanh()
        (2): Linear(in_features=64, out_features=64, bias=True)
        (3): Tanh()
        (4): Linear(in_features=64, out_features=49152, bias=True)
      )
      (t_net): Sequential(
        (0): Linear(in_features=49152, out_features=64, bias=True)
        (1): ReLU()
        (2): Linear(in_features=64, out_features=64, bias=True)
        (3): ReLU()
        (4): Linear(in_features=64, out_features=49152, bias=True)
      )
    )
    (51): BatchNorm()
    (52): LinearMaskedCoupling(
      (s_net): Sequential(
        (0): Linear(in_features=49152, out_features=64, bias=True)
        (1): Tanh()
        (2): Linear(in_features=64, out_features=64, bias=True)
        (3): Tanh()
        (4): Linear(in_features=64, out_features=49152, bias=True)
      )
      (t_net): Sequential(
        (0): Linear(in_features=49152, out_features=64, bias=True)
        (1): ReLU()
        (2): Linear(in_features=64, out_features=64, bias=True)
        (3): ReLU()
        (4): Linear(in_features=64, out_features=49152, bias=True)
      )
    )
    (53): BatchNorm()
    (54): LinearMaskedCoupling(
      (s_net): Sequential(
        (0): Linear(in_features=49152, out_features=64, bias=True)
        (1): Tanh()
        (2): Linear(in_features=64, out_features=64, bias=True)
        (3): Tanh()
        (4): Linear(in_features=64, out_features=49152, bias=True)
      )
      (t_net): Sequential(
        (0): Linear(in_features=49152, out_features=64, bias=True)
        (1): ReLU()
        (2): Linear(in_features=64, out_features=64, bias=True)
        (3): ReLU()
        (4): Linear(in_features=64, out_features=49152, bias=True)
      )
    )
    (55): BatchNorm()
    (56): LinearMaskedCoupling(
      (s_net): Sequential(
        (0): Linear(in_features=49152, out_features=64, bias=True)
        (1): Tanh()
        (2): Linear(in_features=64, out_features=64, bias=True)
        (3): Tanh()
        (4): Linear(in_features=64, out_features=49152, bias=True)
      )
      (t_net): Sequential(
        (0): Linear(in_features=49152, out_features=64, bias=True)
        (1): ReLU()
        (2): Linear(in_features=64, out_features=64, bias=True)
        (3): ReLU()
        (4): Linear(in_features=64, out_features=49152, bias=True)
      )
    )
    (57): BatchNorm()
    (58): LinearMaskedCoupling(
      (s_net): Sequential(
        (0): Linear(in_features=49152, out_features=64, bias=True)
        (1): Tanh()
        (2): Linear(in_features=64, out_features=64, bias=True)
        (3): Tanh()
        (4): Linear(in_features=64, out_features=49152, bias=True)
      )
      (t_net): Sequential(
        (0): Linear(in_features=49152, out_features=64, bias=True)
        (1): ReLU()
        (2): Linear(in_features=64, out_features=64, bias=True)
        (3): ReLU()
        (4): Linear(in_features=64, out_features=49152, bias=True)
      )
    )
    (59): BatchNorm()
    (60): LinearMaskedCoupling(
      (s_net): Sequential(
        (0): Linear(in_features=49152, out_features=64, bias=True)
        (1): Tanh()
        (2): Linear(in_features=64, out_features=64, bias=True)
        (3): Tanh()
        (4): Linear(in_features=64, out_features=49152, bias=True)
      )
      (t_net): Sequential(
        (0): Linear(in_features=49152, out_features=64, bias=True)
        (1): ReLU()
        (2): Linear(in_features=64, out_features=64, bias=True)
        (3): ReLU()
        (4): Linear(in_features=64, out_features=49152, bias=True)
      )
    )
    (61): BatchNorm()
    (62): LinearMaskedCoupling(
      (s_net): Sequential(
        (0): Linear(in_features=49152, out_features=64, bias=True)
        (1): Tanh()
        (2): Linear(in_features=64, out_features=64, bias=True)
        (3): Tanh()
        (4): Linear(in_features=64, out_features=49152, bias=True)
      )
      (t_net): Sequential(
        (0): Linear(in_features=49152, out_features=64, bias=True)
        (1): ReLU()
        (2): Linear(in_features=64, out_features=64, bias=True)
        (3): ReLU()
        (4): Linear(in_features=64, out_features=49152, bias=True)
      )
    )
    (63): BatchNorm()
  )
)
{'activation_fn': 'relu',
 'batch_size': 4,
 'channel': -1,
 'cond_label_size': None,
 'conditional': False,
 'data_dir': './data/',
 'dataset': '',
 'device': device(type='cuda', index=0),
 'flip_toy_var_order': False,
 'generate': False,
 'hidden_size': 64,
 'input_dims': torch.Size([3, 128, 128]),
 'input_order': 'random',
 'input_size': 65536,
 'log_interval': 1000,
 'lr': 0.0001,
 'model': 'realnvp',
 'n_blocks': 32,
 'n_components': 1,
 'n_epochs': 50,
 'n_hidden': 1,
 'no_batch_norm': False,
 'no_cuda': False,
 'output_dir': './results/mafencoderTrue_channel-1_nblocks32/',
 'restore_file': None,
 'results_file': 'results.txt',
 'seed': 1,
 'start_epoch': 0,
 'train': True,
 'use_encoder': True}
RealNVP(
  (net): FlowSequential(
    (0): LinearMaskedCoupling(
      (s_net): Sequential(
        (0): Linear(in_features=65536, out_features=64, bias=True)
        (1): Tanh()
        (2): Linear(in_features=64, out_features=64, bias=True)
        (3): Tanh()
        (4): Linear(in_features=64, out_features=65536, bias=True)
      )
      (t_net): Sequential(
        (0): Linear(in_features=65536, out_features=64, bias=True)
        (1): ReLU()
        (2): Linear(in_features=64, out_features=64, bias=True)
        (3): ReLU()
        (4): Linear(in_features=64, out_features=65536, bias=True)
      )
    )
    (1): BatchNorm()
    (2): LinearMaskedCoupling(
      (s_net): Sequential(
        (0): Linear(in_features=65536, out_features=64, bias=True)
        (1): Tanh()
        (2): Linear(in_features=64, out_features=64, bias=True)
        (3): Tanh()
        (4): Linear(in_features=64, out_features=65536, bias=True)
      )
      (t_net): Sequential(
        (0): Linear(in_features=65536, out_features=64, bias=True)
        (1): ReLU()
        (2): Linear(in_features=64, out_features=64, bias=True)
        (3): ReLU()
        (4): Linear(in_features=64, out_features=65536, bias=True)
      )
    )
    (3): BatchNorm()
    (4): LinearMaskedCoupling(
      (s_net): Sequential(
        (0): Linear(in_features=65536, out_features=64, bias=True)
        (1): Tanh()
        (2): Linear(in_features=64, out_features=64, bias=True)
        (3): Tanh()
        (4): Linear(in_features=64, out_features=65536, bias=True)
      )
      (t_net): Sequential(
        (0): Linear(in_features=65536, out_features=64, bias=True)
        (1): ReLU()
        (2): Linear(in_features=64, out_features=64, bias=True)
        (3): ReLU()
        (4): Linear(in_features=64, out_features=65536, bias=True)
      )
    )
    (5): BatchNorm()
    (6): LinearMaskedCoupling(
      (s_net): Sequential(
        (0): Linear(in_features=65536, out_features=64, bias=True)
        (1): Tanh()
        (2): Linear(in_features=64, out_features=64, bias=True)
        (3): Tanh()
        (4): Linear(in_features=64, out_features=65536, bias=True)
      )
      (t_net): Sequential(
        (0): Linear(in_features=65536, out_features=64, bias=True)
        (1): ReLU()
        (2): Linear(in_features=64, out_features=64, bias=True)
        (3): ReLU()
        (4): Linear(in_features=64, out_features=65536, bias=True)
      )
    )
    (7): BatchNorm()
    (8): LinearMaskedCoupling(
      (s_net): Sequential(
        (0): Linear(in_features=65536, out_features=64, bias=True)
        (1): Tanh()
        (2): Linear(in_features=64, out_features=64, bias=True)
        (3): Tanh()
        (4): Linear(in_features=64, out_features=65536, bias=True)
      )
      (t_net): Sequential(
        (0): Linear(in_features=65536, out_features=64, bias=True)
        (1): ReLU()
        (2): Linear(in_features=64, out_features=64, bias=True)
        (3): ReLU()
        (4): Linear(in_features=64, out_features=65536, bias=True)
      )
    )
    (9): BatchNorm()
    (10): LinearMaskedCoupling(
      (s_net): Sequential(
        (0): Linear(in_features=65536, out_features=64, bias=True)
        (1): Tanh()
        (2): Linear(in_features=64, out_features=64, bias=True)
        (3): Tanh()
        (4): Linear(in_features=64, out_features=65536, bias=True)
      )
      (t_net): Sequential(
        (0): Linear(in_features=65536, out_features=64, bias=True)
        (1): ReLU()
        (2): Linear(in_features=64, out_features=64, bias=True)
        (3): ReLU()
        (4): Linear(in_features=64, out_features=65536, bias=True)
      )
    )
    (11): BatchNorm()
    (12): LinearMaskedCoupling(
      (s_net): Sequential(
        (0): Linear(in_features=65536, out_features=64, bias=True)
        (1): Tanh()
        (2): Linear(in_features=64, out_features=64, bias=True)
        (3): Tanh()
        (4): Linear(in_features=64, out_features=65536, bias=True)
      )
      (t_net): Sequential(
        (0): Linear(in_features=65536, out_features=64, bias=True)
        (1): ReLU()
        (2): Linear(in_features=64, out_features=64, bias=True)
        (3): ReLU()
        (4): Linear(in_features=64, out_features=65536, bias=True)
      )
    )
    (13): BatchNorm()
    (14): LinearMaskedCoupling(
      (s_net): Sequential(
        (0): Linear(in_features=65536, out_features=64, bias=True)
        (1): Tanh()
        (2): Linear(in_features=64, out_features=64, bias=True)
        (3): Tanh()
        (4): Linear(in_features=64, out_features=65536, bias=True)
      )
      (t_net): Sequential(
        (0): Linear(in_features=65536, out_features=64, bias=True)
        (1): ReLU()
        (2): Linear(in_features=64, out_features=64, bias=True)
        (3): ReLU()
        (4): Linear(in_features=64, out_features=65536, bias=True)
      )
    )
    (15): BatchNorm()
    (16): LinearMaskedCoupling(
      (s_net): Sequential(
        (0): Linear(in_features=65536, out_features=64, bias=True)
        (1): Tanh()
        (2): Linear(in_features=64, out_features=64, bias=True)
        (3): Tanh()
        (4): Linear(in_features=64, out_features=65536, bias=True)
      )
      (t_net): Sequential(
        (0): Linear(in_features=65536, out_features=64, bias=True)
        (1): ReLU()
        (2): Linear(in_features=64, out_features=64, bias=True)
        (3): ReLU()
        (4): Linear(in_features=64, out_features=65536, bias=True)
      )
    )
    (17): BatchNorm()
    (18): LinearMaskedCoupling(
      (s_net): Sequential(
        (0): Linear(in_features=65536, out_features=64, bias=True)
        (1): Tanh()
        (2): Linear(in_features=64, out_features=64, bias=True)
        (3): Tanh()
        (4): Linear(in_features=64, out_features=65536, bias=True)
      )
      (t_net): Sequential(
        (0): Linear(in_features=65536, out_features=64, bias=True)
        (1): ReLU()
        (2): Linear(in_features=64, out_features=64, bias=True)
        (3): ReLU()
        (4): Linear(in_features=64, out_features=65536, bias=True)
      )
    )
    (19): BatchNorm()
    (20): LinearMaskedCoupling(
      (s_net): Sequential(
        (0): Linear(in_features=65536, out_features=64, bias=True)
        (1): Tanh()
        (2): Linear(in_features=64, out_features=64, bias=True)
        (3): Tanh()
        (4): Linear(in_features=64, out_features=65536, bias=True)
      )
      (t_net): Sequential(
        (0): Linear(in_features=65536, out_features=64, bias=True)
        (1): ReLU()
        (2): Linear(in_features=64, out_features=64, bias=True)
        (3): ReLU()
        (4): Linear(in_features=64, out_features=65536, bias=True)
      )
    )
    (21): BatchNorm()
    (22): LinearMaskedCoupling(
      (s_net): Sequential(
        (0): Linear(in_features=65536, out_features=64, bias=True)
        (1): Tanh()
        (2): Linear(in_features=64, out_features=64, bias=True)
        (3): Tanh()
        (4): Linear(in_features=64, out_features=65536, bias=True)
      )
      (t_net): Sequential(
        (0): Linear(in_features=65536, out_features=64, bias=True)
        (1): ReLU()
        (2): Linear(in_features=64, out_features=64, bias=True)
        (3): ReLU()
        (4): Linear(in_features=64, out_features=65536, bias=True)
      )
    )
    (23): BatchNorm()
    (24): LinearMaskedCoupling(
      (s_net): Sequential(
        (0): Linear(in_features=65536, out_features=64, bias=True)
        (1): Tanh()
        (2): Linear(in_features=64, out_features=64, bias=True)
        (3): Tanh()
        (4): Linear(in_features=64, out_features=65536, bias=True)
      )
      (t_net): Sequential(
        (0): Linear(in_features=65536, out_features=64, bias=True)
        (1): ReLU()
        (2): Linear(in_features=64, out_features=64, bias=True)
        (3): ReLU()
        (4): Linear(in_features=64, out_features=65536, bias=True)
      )
    )
    (25): BatchNorm()
    (26): LinearMaskedCoupling(
      (s_net): Sequential(
        (0): Linear(in_features=65536, out_features=64, bias=True)
        (1): Tanh()
        (2): Linear(in_features=64, out_features=64, bias=True)
        (3): Tanh()
        (4): Linear(in_features=64, out_features=65536, bias=True)
      )
      (t_net): Sequential(
        (0): Linear(in_features=65536, out_features=64, bias=True)
        (1): ReLU()
        (2): Linear(in_features=64, out_features=64, bias=True)
        (3): ReLU()
        (4): Linear(in_features=64, out_features=65536, bias=True)
      )
    )
    (27): BatchNorm()
    (28): LinearMaskedCoupling(
      (s_net): Sequential(
        (0): Linear(in_features=65536, out_features=64, bias=True)
        (1): Tanh()
        (2): Linear(in_features=64, out_features=64, bias=True)
        (3): Tanh()
        (4): Linear(in_features=64, out_features=65536, bias=True)
      )
      (t_net): Sequential(
        (0): Linear(in_features=65536, out_features=64, bias=True)
        (1): ReLU()
        (2): Linear(in_features=64, out_features=64, bias=True)
        (3): ReLU()
        (4): Linear(in_features=64, out_features=65536, bias=True)
      )
    )
    (29): BatchNorm()
    (30): LinearMaskedCoupling(
      (s_net): Sequential(
        (0): Linear(in_features=65536, out_features=64, bias=True)
        (1): Tanh()
        (2): Linear(in_features=64, out_features=64, bias=True)
        (3): Tanh()
        (4): Linear(in_features=64, out_features=65536, bias=True)
      )
      (t_net): Sequential(
        (0): Linear(in_features=65536, out_features=64, bias=True)
        (1): ReLU()
        (2): Linear(in_features=64, out_features=64, bias=True)
        (3): ReLU()
        (4): Linear(in_features=64, out_features=65536, bias=True)
      )
    )
    (31): BatchNorm()
    (32): LinearMaskedCoupling(
      (s_net): Sequential(
        (0): Linear(in_features=65536, out_features=64, bias=True)
        (1): Tanh()
        (2): Linear(in_features=64, out_features=64, bias=True)
        (3): Tanh()
        (4): Linear(in_features=64, out_features=65536, bias=True)
      )
      (t_net): Sequential(
        (0): Linear(in_features=65536, out_features=64, bias=True)
        (1): ReLU()
        (2): Linear(in_features=64, out_features=64, bias=True)
        (3): ReLU()
        (4): Linear(in_features=64, out_features=65536, bias=True)
      )
    )
    (33): BatchNorm()
    (34): LinearMaskedCoupling(
      (s_net): Sequential(
        (0): Linear(in_features=65536, out_features=64, bias=True)
        (1): Tanh()
        (2): Linear(in_features=64, out_features=64, bias=True)
        (3): Tanh()
        (4): Linear(in_features=64, out_features=65536, bias=True)
      )
      (t_net): Sequential(
        (0): Linear(in_features=65536, out_features=64, bias=True)
        (1): ReLU()
        (2): Linear(in_features=64, out_features=64, bias=True)
        (3): ReLU()
        (4): Linear(in_features=64, out_features=65536, bias=True)
      )
    )
    (35): BatchNorm()
    (36): LinearMaskedCoupling(
      (s_net): Sequential(
        (0): Linear(in_features=65536, out_features=64, bias=True)
        (1): Tanh()
        (2): Linear(in_features=64, out_features=64, bias=True)
        (3): Tanh()
        (4): Linear(in_features=64, out_features=65536, bias=True)
      )
      (t_net): Sequential(
        (0): Linear(in_features=65536, out_features=64, bias=True)
        (1): ReLU()
        (2): Linear(in_features=64, out_features=64, bias=True)
        (3): ReLU()
        (4): Linear(in_features=64, out_features=65536, bias=True)
      )
    )
    (37): BatchNorm()
    (38): LinearMaskedCoupling(
      (s_net): Sequential(
        (0): Linear(in_features=65536, out_features=64, bias=True)
        (1): Tanh()
        (2): Linear(in_features=64, out_features=64, bias=True)
        (3): Tanh()
        (4): Linear(in_features=64, out_features=65536, bias=True)
      )
      (t_net): Sequential(
        (0): Linear(in_features=65536, out_features=64, bias=True)
        (1): ReLU()
        (2): Linear(in_features=64, out_features=64, bias=True)
        (3): ReLU()
        (4): Linear(in_features=64, out_features=65536, bias=True)
      )
    )
    (39): BatchNorm()
    (40): LinearMaskedCoupling(
      (s_net): Sequential(
        (0): Linear(in_features=65536, out_features=64, bias=True)
        (1): Tanh()
        (2): Linear(in_features=64, out_features=64, bias=True)
        (3): Tanh()
        (4): Linear(in_features=64, out_features=65536, bias=True)
      )
      (t_net): Sequential(
        (0): Linear(in_features=65536, out_features=64, bias=True)
        (1): ReLU()
        (2): Linear(in_features=64, out_features=64, bias=True)
        (3): ReLU()
        (4): Linear(in_features=64, out_features=65536, bias=True)
      )
    )
    (41): BatchNorm()
    (42): LinearMaskedCoupling(
      (s_net): Sequential(
        (0): Linear(in_features=65536, out_features=64, bias=True)
        (1): Tanh()
        (2): Linear(in_features=64, out_features=64, bias=True)
        (3): Tanh()
        (4): Linear(in_features=64, out_features=65536, bias=True)
      )
      (t_net): Sequential(
        (0): Linear(in_features=65536, out_features=64, bias=True)
        (1): ReLU()
        (2): Linear(in_features=64, out_features=64, bias=True)
        (3): ReLU()
        (4): Linear(in_features=64, out_features=65536, bias=True)
      )
    )
    (43): BatchNorm()
    (44): LinearMaskedCoupling(
      (s_net): Sequential(
        (0): Linear(in_features=65536, out_features=64, bias=True)
        (1): Tanh()
        (2): Linear(in_features=64, out_features=64, bias=True)
        (3): Tanh()
        (4): Linear(in_features=64, out_features=65536, bias=True)
      )
      (t_net): Sequential(
        (0): Linear(in_features=65536, out_features=64, bias=True)
        (1): ReLU()
        (2): Linear(in_features=64, out_features=64, bias=True)
        (3): ReLU()
        (4): Linear(in_features=64, out_features=65536, bias=True)
      )
    )
    (45): BatchNorm()
    (46): LinearMaskedCoupling(
      (s_net): Sequential(
        (0): Linear(in_features=65536, out_features=64, bias=True)
        (1): Tanh()
        (2): Linear(in_features=64, out_features=64, bias=True)
        (3): Tanh()
        (4): Linear(in_features=64, out_features=65536, bias=True)
      )
      (t_net): Sequential(
        (0): Linear(in_features=65536, out_features=64, bias=True)
        (1): ReLU()
        (2): Linear(in_features=64, out_features=64, bias=True)
        (3): ReLU()
        (4): Linear(in_features=64, out_features=65536, bias=True)
      )
    )
    (47): BatchNorm()
    (48): LinearMaskedCoupling(
      (s_net): Sequential(
        (0): Linear(in_features=65536, out_features=64, bias=True)
        (1): Tanh()
        (2): Linear(in_features=64, out_features=64, bias=True)
        (3): Tanh()
        (4): Linear(in_features=64, out_features=65536, bias=True)
      )
      (t_net): Sequential(
        (0): Linear(in_features=65536, out_features=64, bias=True)
        (1): ReLU()
        (2): Linear(in_features=64, out_features=64, bias=True)
        (3): ReLU()
        (4): Linear(in_features=64, out_features=65536, bias=True)
      )
    )
    (49): BatchNorm()
    (50): LinearMaskedCoupling(
      (s_net): Sequential(
        (0): Linear(in_features=65536, out_features=64, bias=True)
        (1): Tanh()
        (2): Linear(in_features=64, out_features=64, bias=True)
        (3): Tanh()
        (4): Linear(in_features=64, out_features=65536, bias=True)
      )
      (t_net): Sequential(
        (0): Linear(in_features=65536, out_features=64, bias=True)
        (1): ReLU()
        (2): Linear(in_features=64, out_features=64, bias=True)
        (3): ReLU()
        (4): Linear(in_features=64, out_features=65536, bias=True)
      )
    )
    (51): BatchNorm()
    (52): LinearMaskedCoupling(
      (s_net): Sequential(
        (0): Linear(in_features=65536, out_features=64, bias=True)
        (1): Tanh()
        (2): Linear(in_features=64, out_features=64, bias=True)
        (3): Tanh()
        (4): Linear(in_features=64, out_features=65536, bias=True)
      )
      (t_net): Sequential(
        (0): Linear(in_features=65536, out_features=64, bias=True)
        (1): ReLU()
        (2): Linear(in_features=64, out_features=64, bias=True)
        (3): ReLU()
        (4): Linear(in_features=64, out_features=65536, bias=True)
      )
    )
    (53): BatchNorm()
    (54): LinearMaskedCoupling(
      (s_net): Sequential(
        (0): Linear(in_features=65536, out_features=64, bias=True)
        (1): Tanh()
        (2): Linear(in_features=64, out_features=64, bias=True)
        (3): Tanh()
        (4): Linear(in_features=64, out_features=65536, bias=True)
      )
      (t_net): Sequential(
        (0): Linear(in_features=65536, out_features=64, bias=True)
        (1): ReLU()
        (2): Linear(in_features=64, out_features=64, bias=True)
        (3): ReLU()
        (4): Linear(in_features=64, out_features=65536, bias=True)
      )
    )
    (55): BatchNorm()
    (56): LinearMaskedCoupling(
      (s_net): Sequential(
        (0): Linear(in_features=65536, out_features=64, bias=True)
        (1): Tanh()
        (2): Linear(in_features=64, out_features=64, bias=True)
        (3): Tanh()
        (4): Linear(in_features=64, out_features=65536, bias=True)
      )
      (t_net): Sequential(
        (0): Linear(in_features=65536, out_features=64, bias=True)
        (1): ReLU()
        (2): Linear(in_features=64, out_features=64, bias=True)
        (3): ReLU()
        (4): Linear(in_features=64, out_features=65536, bias=True)
      )
    )
    (57): BatchNorm()
    (58): LinearMaskedCoupling(
      (s_net): Sequential(
        (0): Linear(in_features=65536, out_features=64, bias=True)
        (1): Tanh()
        (2): Linear(in_features=64, out_features=64, bias=True)
        (3): Tanh()
        (4): Linear(in_features=64, out_features=65536, bias=True)
      )
      (t_net): Sequential(
        (0): Linear(in_features=65536, out_features=64, bias=True)
        (1): ReLU()
        (2): Linear(in_features=64, out_features=64, bias=True)
        (3): ReLU()
        (4): Linear(in_features=64, out_features=65536, bias=True)
      )
    )
    (59): BatchNorm()
    (60): LinearMaskedCoupling(
      (s_net): Sequential(
        (0): Linear(in_features=65536, out_features=64, bias=True)
        (1): Tanh()
        (2): Linear(in_features=64, out_features=64, bias=True)
        (3): Tanh()
        (4): Linear(in_features=64, out_features=65536, bias=True)
      )
      (t_net): Sequential(
        (0): Linear(in_features=65536, out_features=64, bias=True)
        (1): ReLU()
        (2): Linear(in_features=64, out_features=64, bias=True)
        (3): ReLU()
        (4): Linear(in_features=64, out_features=65536, bias=True)
      )
    )
    (61): BatchNorm()
    (62): LinearMaskedCoupling(
      (s_net): Sequential(
        (0): Linear(in_features=65536, out_features=64, bias=True)
        (1): Tanh()
        (2): Linear(in_features=64, out_features=64, bias=True)
        (3): Tanh()
        (4): Linear(in_features=64, out_features=65536, bias=True)
      )
      (t_net): Sequential(
        (0): Linear(in_features=65536, out_features=64, bias=True)
        (1): ReLU()
        (2): Linear(in_features=64, out_features=64, bias=True)
        (3): ReLU()
        (4): Linear(in_features=64, out_features=65536, bias=True)
      )
    )
    (63): BatchNorm()
  )
)
Evaluate (epoch 0) -- logp(x) = -82207.102 +/- 459.265
Evaluate (epoch 0) -- logp(x) = -131263192.000 +/- 2208194.500
Evaluate (epoch 0) -- logp(x) = -3023682.750 +/- 397858.000
Evaluate (epoch 0) -- logp(x) = -294254208.000 +/- 4687390.000
Evaluate (epoch 0) -- logp(x) = -79395.578 +/- 42.422
Evaluate (epoch 0) -- logp(x) = 83021.586 +/- 656.738
…
 'flip_toy_var_order': False,
 'generate': False,
 'hidden_size': 64,
 'input_dims': torch.Size([3, 64, 64]),
 'input_order': 'random',
 'input_size': 12288,
 'log_interval': 1000,
 'lr': 0.0001,
 'model': 'realnvp',
 'n_blocks': 32,
 'n_components': 1,
 'n_epochs': 50,
 'n_hidden': 1,
 'no_batch_norm': False,
 'no_cuda': False,
 'output_dir': './results/mafencoderFalse_channel-1_nblocks32/',
 'restore_file': None,
 'results_file': 'results.txt',
 'seed': 1,
 'start_epoch': 0,
 'train': True,
 'use_encoder': False}
RealNVP(
  (net): FlowSequential(
    (0): LinearMaskedCoupling(
      (s_net): Sequential(
        (0): Linear(in_features=12288, out_features=64, bias=True)
        (1): Tanh()
        (2): Linear(in_features=64, out_features=64, bias=True)
        (3): Tanh()
        (4): Linear(in_features=64, out_features=12288, bias=True)
      )
      (t_net): Sequential(
        (0): Linear(in_features=12288, out_features=64, bias=True)
        (1): ReLU()
        (2): Linear(in_features=64, out_features=64, bias=True)
        (3): ReLU()
        (4): Linear(in_features=64, out_features=12288, bias=True)
      )
    )
    (1): BatchNorm()
    (2): LinearMaskedCoupling(
      (s_net): Sequential(
        (0): Linear(in_features=12288, out_features=64, bias=True)
        (1): Tanh()
        (2): Linear(in_features=64, out_features=64, bias=True)
        (3): Tanh()
        (4): Linear(in_features=64, out_features=12288, bias=True)
      )
      (t_net): Sequential(
        (0): Linear(in_features=12288, out_features=64, bias=True)
        (1): ReLU()
        (2): Linear(in_features=64, out_features=64, bias=True)
        (3): ReLU()
        (4): Linear(in_features=64, out_features=12288, bias=True)
      )
    )
    (3): BatchNorm()
    (4): LinearMaskedCoupling(
      (s_net): Sequential(
        (0): Linear(in_features=12288, out_features=64, bias=True)
        (1): Tanh()
        (2): Linear(in_features=64, out_features=64, bias=True)
        (3): Tanh()
        (4): Linear(in_features=64, out_features=12288, bias=True)
      )
      (t_net): Sequential(
        (0): Linear(in_features=12288, out_features=64, bias=True)
        (1): ReLU()
        (2): Linear(in_features=64, out_features=64, bias=True)
        (3): ReLU()
        (4): Linear(in_features=64, out_features=12288, bias=True)
      )
    )
    (5): BatchNorm()
    (6): LinearMaskedCoupling(
      (s_net): Sequential(
        (0): Linear(in_features=12288, out_features=64, bias=True)
        (1): Tanh()
        (2): Linear(in_features=64, out_features=64, bias=True)
        (3): Tanh()
        (4): Linear(in_features=64, out_features=12288, bias=True)
      )
      (t_net): Sequential(
        (0): Linear(in_features=12288, out_features=64, bias=True)
        (1): ReLU()
        (2): Linear(in_features=64, out_features=64, bias=True)
        (3): ReLU()
        (4): Linear(in_features=64, out_features=12288, bias=True)
      )
    )
    (7): BatchNorm()
    (8): LinearMaskedCoupling(
      (s_net): Sequential(
        (0): Linear(in_features=12288, out_features=64, bias=True)
        (1): Tanh()
        (2): Linear(in_features=64, out_features=64, bias=True)
        (3): Tanh()
        (4): Linear(in_features=64, out_features=12288, bias=True)
      )
      (t_net): Sequential(
        (0): Linear(in_features=12288, out_features=64, bias=True)
        (1): ReLU()
        (2): Linear(in_features=64, out_features=64, bias=True)
        (3): ReLU()
        (4): Linear(in_features=64, out_features=12288, bias=True)
      )
    )
    (9): BatchNorm()
    (10): LinearMaskedCoupling(
      (s_net): Sequential(
        (0): Linear(in_features=12288, out_features=64, bias=True)
        (1): Tanh()
        (2): Linear(in_features=64, out_features=64, bias=True)
        (3): Tanh()
        (4): Linear(in_features=64, out_features=12288, bias=True)
      )
      (t_net): Sequential(
        (0): Linear(in_features=12288, out_features=64, bias=True)
        (1): ReLU()
        (2): Linear(in_features=64, out_features=64, bias=True)
        (3): ReLU()
        (4): Linear(in_features=64, out_features=12288, bias=True)
      )
    )
    (11): BatchNorm()
    (12): LinearMaskedCoupling(
      (s_net): Sequential(
        (0): Linear(in_features=12288, out_features=64, bias=True)
        (1): Tanh()
        (2): Linear(in_features=64, out_features=64, bias=True)
        (3): Tanh()
        (4): Linear(in_features=64, out_features=12288, bias=True)
      )
      (t_net): Sequential(
        (0): Linear(in_features=12288, out_features=64, bias=True)
        (1): ReLU()
        (2): Linear(in_features=64, out_features=64, bias=True)
        (3): ReLU()
        (4): Linear(in_features=64, out_features=12288, bias=True)
      )
    )
    (13): BatchNorm()
    (14): LinearMaskedCoupling(
      (s_net): Sequential(
        (0): Linear(in_features=12288, out_features=64, bias=True)
        (1): Tanh()
        (2): Linear(in_features=64, out_features=64, bias=True)
        (3): Tanh()
        (4): Linear(in_features=64, out_features=12288, bias=True)
      )
      (t_net): Sequential(
        (0): Linear(in_features=12288, out_features=64, bias=True)
        (1): ReLU()
        (2): Linear(in_features=64, out_features=64, bias=True)
        (3): ReLU()
        (4): Linear(in_features=64, out_features=12288, bias=True)
      )
    )
    (15): BatchNorm()
    (16): LinearMaskedCoupling(
      (s_net): Sequential(
        (0): Linear(in_features=12288, out_features=64, bias=True)
        (1): Tanh()
        (2): Linear(in_features=64, out_features=64, bias=True)
        (3): Tanh()
        (4): Linear(in_features=64, out_features=12288, bias=True)
      )
      (t_net): Sequential(
        (0): Linear(in_features=12288, out_features=64, bias=True)
        (1): ReLU()
        (2): Linear(in_features=64, out_features=64, bias=True)
        (3): ReLU()
        (4): Linear(in_features=64, out_features=12288, bias=True)
      )
    )
    (17): BatchNorm()
    (18): LinearMaskedCoupling(
      (s_net): Sequential(
        (0): Linear(in_features=12288, out_features=64, bias=True)
        (1): Tanh()
        (2): Linear(in_features=64, out_features=64, bias=True)
        (3): Tanh()
        (4): Linear(in_features=64, out_features=12288, bias=True)
      )
      (t_net): Sequential(
        (0): Linear(in_features=12288, out_features=64, bias=True)
        (1): ReLU()
        (2): Linear(in_features=64, out_features=64, bias=True)
        (3): ReLU()
        (4): Linear(in_features=64, out_features=12288, bias=True)
      )
    )
    (19): BatchNorm()
    (20): LinearMaskedCoupling(
      (s_net): Sequential(
        (0): Linear(in_features=12288, out_features=64, bias=True)
        (1): Tanh()
        (2): Linear(in_features=64, out_features=64, bias=True)
        (3): Tanh()
        (4): Linear(in_features=64, out_features=12288, bias=True)
      )
      (t_net): Sequential(
        (0): Linear(in_features=12288, out_features=64, bias=True)
        (1): ReLU()
        (2): Linear(in_features=64, out_features=64, bias=True)
        (3): ReLU()
        (4): Linear(in_features=64, out_features=12288, bias=True)
      )
    )
    (21): BatchNorm()
    (22): LinearMaskedCoupling(
      (s_net): Sequential(
        (0): Linear(in_features=12288, out_features=64, bias=True)
        (1): Tanh()
        (2): Linear(in_features=64, out_features=64, bias=True)
        (3): Tanh()
        (4): Linear(in_features=64, out_features=12288, bias=True)
      )
      (t_net): Sequential(
        (0): Linear(in_features=12288, out_features=64, bias=True)
        (1): ReLU()
        (2): Linear(in_features=64, out_features=64, bias=True)
        (3): ReLU()
        (4): Linear(in_features=64, out_features=12288, bias=True)
      )
    )
    (23): BatchNorm()
    (24): LinearMaskedCoupling(
      (s_net): Sequential(
        (0): Linear(in_features=12288, out_features=64, bias=True)
        (1): Tanh()
        (2): Linear(in_features=64, out_features=64, bias=True)
        (3): Tanh()
        (4): Linear(in_features=64, out_features=12288, bias=True)
      )
      (t_net): Sequential(
        (0): Linear(in_features=12288, out_features=64, bias=True)
        (1): ReLU()
        (2): Linear(in_features=64, out_features=64, bias=True)
        (3): ReLU()
        (4): Linear(in_features=64, out_features=12288, bias=True)
      )
    )
    (25): BatchNorm()
    (26): LinearMaskedCoupling(
      (s_net): Sequential(
        (0): Linear(in_features=12288, out_features=64, bias=True)
        (1): Tanh()
        (2): Linear(in_features=64, out_features=64, bias=True)
        (3): Tanh()
        (4): Linear(in_features=64, out_features=12288, bias=True)
      )
      (t_net): Sequential(
        (0): Linear(in_features=12288, out_features=64, bias=True)
        (1): ReLU()
        (2): Linear(in_features=64, out_features=64, bias=True)
        (3): ReLU()
        (4): Linear(in_features=64, out_features=12288, bias=True)
      )
    )
    (27): BatchNorm()
    (28): LinearMaskedCoupling(
      (s_net): Sequential(
        (0): Linear(in_features=12288, out_features=64, bias=True)
        (1): Tanh()
        (2): Linear(in_features=64, out_features=64, bias=True)
        (3): Tanh()
        (4): Linear(in_features=64, out_features=12288, bias=True)
      )
      (t_net): Sequential(
        (0): Linear(in_features=12288, out_features=64, bias=True)
        (1): ReLU()
        (2): Linear(in_features=64, out_features=64, bias=True)
        (3): ReLU()
        (4): Linear(in_features=64, out_features=12288, bias=True)
      )
    )
    (29): BatchNorm()
    (30): LinearMaskedCoupling(
      (s_net): Sequential(
        (0): Linear(in_features=12288, out_features=64, bias=True)
        (1): Tanh()
        (2): Linear(in_features=64, out_features=64, bias=True)
        (3): Tanh()
        (4): Linear(in_features=64, out_features=12288, bias=True)
      )
      (t_net): Sequential(
        (0): Linear(in_features=12288, out_features=64, bias=True)
        (1): ReLU()
        (2): Linear(in_features=64, out_features=64, bias=True)
        (3): ReLU()
        (4): Linear(in_features=64, out_features=12288, bias=True)
      )
    )
    (31): BatchNorm()
    (32): LinearMaskedCoupling(
      (s_net): Sequential(
        (0): Linear(in_features=12288, out_features=64, bias=True)
        (1): Tanh()
        (2): Linear(in_features=64, out_features=64, bias=True)
        (3): Tanh()
        (4): Linear(in_features=64, out_features=12288, bias=True)
      )
      (t_net): Sequential(
        (0): Linear(in_features=12288, out_features=64, bias=True)
        (1): ReLU()
        (2): Linear(in_features=64, out_features=64, bias=True)
        (3): ReLU()
        (4): Linear(in_features=64, out_features=12288, bias=True)
      )
    )
    (33): BatchNorm()
    (34): LinearMaskedCoupling(
      (s_net): Sequential(
        (0): Linear(in_features=12288, out_features=64, bias=True)
        (1): Tanh()
        (2): Linear(in_features=64, out_features=64, bias=True)
        (3): Tanh()
        (4): Linear(in_features=64, out_features=12288, bias=True)
      )
      (t_net): Sequential(
        (0): Linear(in_features=12288, out_features=64, bias=True)
        (1): ReLU()
        (2): Linear(in_features=64, out_features=64, bias=True)
        (3): ReLU()
        (4): Linear(in_features=64, out_features=12288, bias=True)
      )
    )
    (35): BatchNorm()
    (36): LinearMaskedCoupling(
      (s_net): Sequential(
        (0): Linear(in_features=12288, out_features=64, bias=True)
        (1): Tanh()
        (2): Linear(in_features=64, out_features=64, bias=True)
        (3): Tanh()
        (4): Linear(in_features=64, out_features=12288, bias=True)
      )
      (t_net): Sequential(
        (0): Linear(in_features=12288, out_features=64, bias=True)
        (1): ReLU()
        (2): Linear(in_features=64, out_features=64, bias=True)
        (3): ReLU()
        (4): Linear(in_features=64, out_features=12288, bias=True)
      )
    )
    (37): BatchNorm()
    (38): LinearMaskedCoupling(
      (s_net): Sequential(
        (0): Linear(in_features=12288, out_features=64, bias=True)
        (1): Tanh()
        (2): Linear(in_features=64, out_features=64, bias=True)
        (3): Tanh()
        (4): Linear(in_features=64, out_features=12288, bias=True)
      )
      (t_net): Sequential(
        (0): Linear(in_features=12288, out_features=64, bias=True)
        (1): ReLU()
        (2): Linear(in_features=64, out_features=64, bias=True)
        (3): ReLU()
        (4): Linear(in_features=64, out_features=12288, bias=True)
      )
    )
    (39): BatchNorm()
    (40): LinearMaskedCoupling(
      (s_net): Sequential(
        (0): Linear(in_features=12288, out_features=64, bias=True)
        (1): Tanh()
        (2): Linear(in_features=64, out_features=64, bias=True)
        (3): Tanh()
        (4): Linear(in_features=64, out_features=12288, bias=True)
      )
      (t_net): Sequential(
        (0): Linear(in_features=12288, out_features=64, bias=True)
        (1): ReLU()
        (2): Linear(in_features=64, out_features=64, bias=True)
        (3): ReLU()
        (4): Linear(in_features=64, out_features=12288, bias=True)
      )
    )
    (41): BatchNorm()
    (42): LinearMaskedCoupling(
      (s_net): Sequential(
        (0): Linear(in_features=12288, out_features=64, bias=True)
        (1): Tanh()
        (2): Linear(in_features=64, out_features=64, bias=True)
        (3): Tanh()
        (4): Linear(in_features=64, out_features=12288, bias=True)
      )
      (t_net): Sequential(
        (0): Linear(in_features=12288, out_features=64, bias=True)
        (1): ReLU()
        (2): Linear(in_features=64, out_features=64, bias=True)
        (3): ReLU()
        (4): Linear(in_features=64, out_features=12288, bias=True)
      )
    )
    (43): BatchNorm()
    (44): LinearMaskedCoupling(
      (s_net): Sequential(
        (0): Linear(in_features=12288, out_features=64, bias=True)
        (1): Tanh()
        (2): Linear(in_features=64, out_features=64, bias=True)
        (3): Tanh()
        (4): Linear(in_features=64, out_features=12288, bias=True)
      )
      (t_net): Sequential(
        (0): Linear(in_features=12288, out_features=64, bias=True)
        (1): ReLU()
        (2): Linear(in_features=64, out_features=64, bias=True)
        (3): ReLU()
        (4): Linear(in_features=64, out_features=12288, bias=True)
      )
    )
    (45): BatchNorm()
    (46): LinearMaskedCoupling(
      (s_net): Sequential(
        (0): Linear(in_features=12288, out_features=64, bias=True)
        (1): Tanh()
        (2): Linear(in_features=64, out_features=64, bias=True)
        (3): Tanh()
        (4): Linear(in_features=64, out_features=12288, bias=True)
      )
      (t_net): Sequential(
        (0): Linear(in_features=12288, out_features=64, bias=True)
        (1): ReLU()
        (2): Linear(in_features=64, out_features=64, bias=True)
        (3): ReLU()
        (4): Linear(in_features=64, out_features=12288, bias=True)
      )
    )
    (47): BatchNorm()
    (48): LinearMaskedCoupling(
      (s_net): Sequential(
        (0): Linear(in_features=12288, out_features=64, bias=True)
        (1): Tanh()
        (2): Linear(in_features=64, out_features=64, bias=True)
        (3): Tanh()
        (4): Linear(in_features=64, out_features=12288, bias=True)
      )
      (t_net): Sequential(
        (0): Linear(in_features=12288, out_features=64, bias=True)
        (1): ReLU()
        (2): Linear(in_features=64, out_features=64, bias=True)
        (3): ReLU()
        (4): Linear(in_features=64, out_features=12288, bias=True)
      )
    )
    (49): BatchNorm()
    (50): LinearMaskedCoupling(
      (s_net): Sequential(
        (0): Linear(in_features=12288, out_features=64, bias=True)
        (1): Tanh()
        (2): Linear(in_features=64, out_features=64, bias=True)
        (3): Tanh()
        (4): Linear(in_features=64, out_features=12288, bias=True)
      )
      (t_net): Sequential(
        (0): Linear(in_features=12288, out_features=64, bias=True)
        (1): ReLU()
        (2): Linear(in_features=64, out_features=64, bias=True)
        (3): ReLU()
        (4): Linear(in_features=64, out_features=12288, bias=True)
      )
    )
    (51): BatchNorm()
    (52): LinearMaskedCoupling(
      (s_net): Sequential(
        (0): Linear(in_features=12288, out_features=64, bias=True)
        (1): Tanh()
        (2): Linear(in_features=64, out_features=64, bias=True)
        (3): Tanh()
        (4): Linear(in_features=64, out_features=12288, bias=True)
      )
      (t_net): Sequential(
        (0): Linear(in_features=12288, out_features=64, bias=True)
        (1): ReLU()
        (2): Linear(in_features=64, out_features=64, bias=True)
        (3): ReLU()
        (4): Linear(in_features=64, out_features=12288, bias=True)
      )
    )
    (53): BatchNorm()
    (54): LinearMaskedCoupling(
      (s_net): Sequential(
        (0): Linear(in_features=12288, out_features=64, bias=True)
        (1): Tanh()
        (2): Linear(in_features=64, out_features=64, bias=True)
        (3): Tanh()
        (4): Linear(in_features=64, out_features=12288, bias=True)
      )
      (t_net): Sequential(
        (0): Linear(in_features=12288, out_features=64, bias=True)
        (1): ReLU()
        (2): Linear(in_features=64, out_features=64, bias=True)
        (3): ReLU()
        (4): Linear(in_features=64, out_features=12288, bias=True)
      )
    )
    (55): BatchNorm()
    (56): LinearMaskedCoupling(
      (s_net): Sequential(
        (0): Linear(in_features=12288, out_features=64, bias=True)
        (1): Tanh()
        (2): Linear(in_features=64, out_features=64, bias=True)
        (3): Tanh()
        (4): Linear(in_features=64, out_features=12288, bias=True)
      )
      (t_net): Sequential(
        (0): Linear(in_features=12288, out_features=64, bias=True)
        (1): ReLU()
        (2): Linear(in_features=64, out_features=64, bias=True)
        (3): ReLU()
        (4): Linear(in_features=64, out_features=12288, bias=True)
      )
    )
    (57): BatchNorm()
    (58): LinearMaskedCoupling(
      (s_net): Sequential(
        (0): Linear(in_features=12288, out_features=64, bias=True)
        (1): Tanh()
        (2): Linear(in_features=64, out_features=64, bias=True)
        (3): Tanh()
        (4): Linear(in_features=64, out_features=12288, bias=True)
      )
      (t_net): Sequential(
        (0): Linear(in_features=12288, out_features=64, bias=True)
        (1): ReLU()
        (2): Linear(in_features=64, out_features=64, bias=True)
        (3): ReLU()
        (4): Linear(in_features=64, out_features=12288, bias=True)
      )
    )
    (59): BatchNorm()
    (60): LinearMaskedCoupling(
      (s_net): Sequential(
        (0): Linear(in_features=12288, out_features=64, bias=True)
        (1): Tanh()
        (2): Linear(in_features=64, out_features=64, bias=True)
        (3): Tanh()
        (4): Linear(in_features=64, out_features=12288, bias=True)
      )
      (t_net): Sequential(
        (0): Linear(in_features=12288, out_features=64, bias=True)
        (1): ReLU()
        (2): Linear(in_features=64, out_features=64, bias=True)
        (3): ReLU()
        (4): Linear(in_features=64, out_features=12288, bias=True)
      )
    )
    (61): BatchNorm()
    (62): LinearMaskedCoupling(
      (s_net): Sequential(
        (0): Linear(in_features=12288, out_features=64, bias=True)
        (1): Tanh()
        (2): Linear(in_features=64, out_features=64, bias=True)
        (3): Tanh()
        (4): Linear(in_features=64, out_features=12288, bias=True)
      )
      (t_net): Sequential(
        (0): Linear(in_features=12288, out_features=64, bias=True)
        (1): ReLU()
        (2): Linear(in_features=64, out_features=64, bias=True)
        (3): ReLU()
        (4): Linear(in_features=64, out_features=12288, bias=True)
      )
    )
    (63): BatchNorm()
  )
)
Evaluate (epoch 0) -- logp(x) = -14233.260 +/- 78.796
Evaluate (epoch 0) -- logp(x) = -95852.734 +/- 4034.554
Evaluate (epoch 0) -- logp(x) = -126737.078 +/- 6495.576
Evaluate (epoch 0) -- logp(x) = -1099471.000 +/- 22921.166
Evaluate (epoch 0) -- logp(x) = -347987.406 +/- 18191.471
Evaluate (epoch 1) -- logp(x) = -19088.727 +/- 75.089
…
 'flip_toy_var_order': False,
 'generate': False,
 'hidden_size': 64,
 'input_dims': torch.Size([3, 64, 64]),
 'input_order': 'sequential',
 'input_size': 12288,
 'log_interval': 1000,
 'lr': 0.0001,
 'model': 'realnvp',
 'n_blocks': 64,
 'n_components': 1,
 'n_epochs': 50,
 'n_hidden': 1,
 'no_batch_norm': False,
 'no_cuda': False,
 'output_dir': './results/mafencoderFalse_channel-1_nblocks64/',
 'restore_file': None,
 'results_file': 'results.txt',
 'seed': 1,
 'start_epoch': 0,
 'train': True,
 'use_encoder': False}
RealNVP(
  (net): FlowSequential(
    (0): LinearMaskedCoupling(
      (s_net): Sequential(
        (0): Linear(in_features=12288, out_features=64, bias=True)
        (1): Tanh()
        (2): Linear(in_features=64, out_features=64, bias=True)
        (3): Tanh()
        (4): Linear(in_features=64, out_features=12288, bias=True)
      )
      (t_net): Sequential(
        (0): Linear(in_features=12288, out_features=64, bias=True)
        (1): ReLU()
        (2): Linear(in_features=64, out_features=64, bias=True)
        (3): ReLU()
        (4): Linear(in_features=64, out_features=12288, bias=True)
      )
    )
    (1): BatchNorm()
    (2): LinearMaskedCoupling(
      (s_net): Sequential(
        (0): Linear(in_features=12288, out_features=64, bias=True)
        (1): Tanh()
        (2): Linear(in_features=64, out_features=64, bias=True)
        (3): Tanh()
        (4): Linear(in_features=64, out_features=12288, bias=True)
      )
      (t_net): Sequential(
        (0): Linear(in_features=12288, out_features=64, bias=True)
        (1): ReLU()
        (2): Linear(in_features=64, out_features=64, bias=True)
        (3): ReLU()
        (4): Linear(in_features=64, out_features=12288, bias=True)
      )
    )
    (3): BatchNorm()
    (4): LinearMaskedCoupling(
      (s_net): Sequential(
        (0): Linear(in_features=12288, out_features=64, bias=True)
        (1): Tanh()
        (2): Linear(in_features=64, out_features=64, bias=True)
        (3): Tanh()
        (4): Linear(in_features=64, out_features=12288, bias=True)
      )
      (t_net): Sequential(
        (0): Linear(in_features=12288, out_features=64, bias=True)
        (1): ReLU()
        (2): Linear(in_features=64, out_features=64, bias=True)
        (3): ReLU()
        (4): Linear(in_features=64, out_features=12288, bias=True)
      )
    )
    (5): BatchNorm()
    (6): LinearMaskedCoupling(
      (s_net): Sequential(
        (0): Linear(in_features=12288, out_features=64, bias=True)
        (1): Tanh()
        (2): Linear(in_features=64, out_features=64, bias=True)
        (3): Tanh()
        (4): Linear(in_features=64, out_features=12288, bias=True)
      )
      (t_net): Sequential(
        (0): Linear(in_features=12288, out_features=64, bias=True)
        (1): ReLU()
        (2): Linear(in_features=64, out_features=64, bias=True)
        (3): ReLU()
        (4): Linear(in_features=64, out_features=12288, bias=True)
      )
    )
    (7): BatchNorm()
    (8): LinearMaskedCoupling(
      (s_net): Sequential(
        (0): Linear(in_features=12288, out_features=64, bias=True)
        (1): Tanh()
        (2): Linear(in_features=64, out_features=64, bias=True)
        (3): Tanh()
        (4): Linear(in_features=64, out_features=12288, bias=True)
      )
      (t_net): Sequential(
        (0): Linear(in_features=12288, out_features=64, bias=True)
        (1): ReLU()
        (2): Linear(in_features=64, out_features=64, bias=True)
        (3): ReLU()
        (4): Linear(in_features=64, out_features=12288, bias=True)
      )
    )
    (9): BatchNorm()
    (10): LinearMaskedCoupling(
      (s_net): Sequential(
        (0): Linear(in_features=12288, out_features=64, bias=True)
        (1): Tanh()
        (2): Linear(in_features=64, out_features=64, bias=True)
        (3): Tanh()
        (4): Linear(in_features=64, out_features=12288, bias=True)
      )
      (t_net): Sequential(
        (0): Linear(in_features=12288, out_features=64, bias=True)
        (1): ReLU()
        (2): Linear(in_features=64, out_features=64, bias=True)
        (3): ReLU()
        (4): Linear(in_features=64, out_features=12288, bias=True)
      )
    )
    (11): BatchNorm()
    (12): LinearMaskedCoupling(
      (s_net): Sequential(
        (0): Linear(in_features=12288, out_features=64, bias=True)
        (1): Tanh()
        (2): Linear(in_features=64, out_features=64, bias=True)
        (3): Tanh()
        (4): Linear(in_features=64, out_features=12288, bias=True)
      )
      (t_net): Sequential(
        (0): Linear(in_features=12288, out_features=64, bias=True)
        (1): ReLU()
        (2): Linear(in_features=64, out_features=64, bias=True)
        (3): ReLU()
        (4): Linear(in_features=64, out_features=12288, bias=True)
      )
    )
    (13): BatchNorm()
    (14): LinearMaskedCoupling(
      (s_net): Sequential(
        (0): Linear(in_features=12288, out_features=64, bias=True)
        (1): Tanh()
        (2): Linear(in_features=64, out_features=64, bias=True)
        (3): Tanh()
        (4): Linear(in_features=64, out_features=12288, bias=True)
      )
      (t_net): Sequential(
        (0): Linear(in_features=12288, out_features=64, bias=True)
        (1): ReLU()
        (2): Linear(in_features=64, out_features=64, bias=True)
        (3): ReLU()
        (4): Linear(in_features=64, out_features=12288, bias=True)
      )
    )
    (15): BatchNorm()
    (16): LinearMaskedCoupling(
      (s_net): Sequential(
        (0): Linear(in_features=12288, out_features=64, bias=True)
        (1): Tanh()
        (2): Linear(in_features=64, out_features=64, bias=True)
        (3): Tanh()
        (4): Linear(in_features=64, out_features=12288, bias=True)
      )
      (t_net): Sequential(
        (0): Linear(in_features=12288, out_features=64, bias=True)
        (1): ReLU()
        (2): Linear(in_features=64, out_features=64, bias=True)
        (3): ReLU()
        (4): Linear(in_features=64, out_features=12288, bias=True)
      )
    )
    (17): BatchNorm()
    (18): LinearMaskedCoupling(
      (s_net): Sequential(
        (0): Linear(in_features=12288, out_features=64, bias=True)
        (1): Tanh()
        (2): Linear(in_features=64, out_features=64, bias=True)
        (3): Tanh()
        (4): Linear(in_features=64, out_features=12288, bias=True)
      )
      (t_net): Sequential(
        (0): Linear(in_features=12288, out_features=64, bias=True)
        (1): ReLU()
        (2): Linear(in_features=64, out_features=64, bias=True)
        (3): ReLU()
        (4): Linear(in_features=64, out_features=12288, bias=True)
      )
    )
    (19): BatchNorm()
    (20): LinearMaskedCoupling(
      (s_net): Sequential(
        (0): Linear(in_features=12288, out_features=64, bias=True)
        (1): Tanh()
        (2): Linear(in_features=64, out_features=64, bias=True)
        (3): Tanh()
        (4): Linear(in_features=64, out_features=12288, bias=True)
      )
      (t_net): Sequential(
        (0): Linear(in_features=12288, out_features=64, bias=True)
        (1): ReLU()
        (2): Linear(in_features=64, out_features=64, bias=True)
        (3): ReLU()
        (4): Linear(in_features=64, out_features=12288, bias=True)
      )
    )
    (21): BatchNorm()
    (22): LinearMaskedCoupling(
      (s_net): Sequential(
        (0): Linear(in_features=12288, out_features=64, bias=True)
        (1): Tanh()
        (2): Linear(in_features=64, out_features=64, bias=True)
        (3): Tanh()
        (4): Linear(in_features=64, out_features=12288, bias=True)
      )
      (t_net): Sequential(
        (0): Linear(in_features=12288, out_features=64, bias=True)
        (1): ReLU()
        (2): Linear(in_features=64, out_features=64, bias=True)
        (3): ReLU()
        (4): Linear(in_features=64, out_features=12288, bias=True)
      )
    )
    (23): BatchNorm()
    (24): LinearMaskedCoupling(
      (s_net): Sequential(
        (0): Linear(in_features=12288, out_features=64, bias=True)
        (1): Tanh()
        (2): Linear(in_features=64, out_features=64, bias=True)
        (3): Tanh()
        (4): Linear(in_features=64, out_features=12288, bias=True)
      )
      (t_net): Sequential(
        (0): Linear(in_features=12288, out_features=64, bias=True)
        (1): ReLU()
        (2): Linear(in_features=64, out_features=64, bias=True)
        (3): ReLU()
        (4): Linear(in_features=64, out_features=12288, bias=True)
      )
    )
    (25): BatchNorm()
    (26): LinearMaskedCoupling(
      (s_net): Sequential(
        (0): Linear(in_features=12288, out_features=64, bias=True)
        (1): Tanh()
        (2): Linear(in_features=64, out_features=64, bias=True)
        (3): Tanh()
        (4): Linear(in_features=64, out_features=12288, bias=True)
      )
      (t_net): Sequential(
        (0): Linear(in_features=12288, out_features=64, bias=True)
        (1): ReLU()
        (2): Linear(in_features=64, out_features=64, bias=True)
        (3): ReLU()
        (4): Linear(in_features=64, out_features=12288, bias=True)
      )
    )
    (27): BatchNorm()
    (28): LinearMaskedCoupling(
      (s_net): Sequential(
        (0): Linear(in_features=12288, out_features=64, bias=True)
        (1): Tanh()
        (2): Linear(in_features=64, out_features=64, bias=True)
        (3): Tanh()
        (4): Linear(in_features=64, out_features=12288, bias=True)
      )
      (t_net): Sequential(
        (0): Linear(in_features=12288, out_features=64, bias=True)
        (1): ReLU()
        (2): Linear(in_features=64, out_features=64, bias=True)
        (3): ReLU()
        (4): Linear(in_features=64, out_features=12288, bias=True)
      )
    )
    (29): BatchNorm()
    (30): LinearMaskedCoupling(
      (s_net): Sequential(
        (0): Linear(in_features=12288, out_features=64, bias=True)
        (1): Tanh()
        (2): Linear(in_features=64, out_features=64, bias=True)
        (3): Tanh()
        (4): Linear(in_features=64, out_features=12288, bias=True)
      )
      (t_net): Sequential(
        (0): Linear(in_features=12288, out_features=64, bias=True)
        (1): ReLU()
        (2): Linear(in_features=64, out_features=64, bias=True)
        (3): ReLU()
        (4): Linear(in_features=64, out_features=12288, bias=True)
      )
    )
    (31): BatchNorm()
    (32): LinearMaskedCoupling(
      (s_net): Sequential(
        (0): Linear(in_features=12288, out_features=64, bias=True)
        (1): Tanh()
        (2): Linear(in_features=64, out_features=64, bias=True)
        (3): Tanh()
        (4): Linear(in_features=64, out_features=12288, bias=True)
      )
      (t_net): Sequential(
        (0): Linear(in_features=12288, out_features=64, bias=True)
        (1): ReLU()
        (2): Linear(in_features=64, out_features=64, bias=True)
        (3): ReLU()
        (4): Linear(in_features=64, out_features=12288, bias=True)
      )
    )
    (33): BatchNorm()
    (34): LinearMaskedCoupling(
      (s_net): Sequential(
        (0): Linear(in_features=12288, out_features=64, bias=True)
        (1): Tanh()
        (2): Linear(in_features=64, out_features=64, bias=True)
        (3): Tanh()
        (4): Linear(in_features=64, out_features=12288, bias=True)
      )
      (t_net): Sequential(
        (0): Linear(in_features=12288, out_features=64, bias=True)
        (1): ReLU()
        (2): Linear(in_features=64, out_features=64, bias=True)
        (3): ReLU()
        (4): Linear(in_features=64, out_features=12288, bias=True)
      )
    )
    (35): BatchNorm()
    (36): LinearMaskedCoupling(
      (s_net): Sequential(
        (0): Linear(in_features=12288, out_features=64, bias=True)
        (1): Tanh()
        (2): Linear(in_features=64, out_features=64, bias=True)
        (3): Tanh()
        (4): Linear(in_features=64, out_features=12288, bias=True)
      )
      (t_net): Sequential(
        (0): Linear(in_features=12288, out_features=64, bias=True)
        (1): ReLU()
        (2): Linear(in_features=64, out_features=64, bias=True)
        (3): ReLU()
        (4): Linear(in_features=64, out_features=12288, bias=True)
      )
    )
    (37): BatchNorm()
    (38): LinearMaskedCoupling(
      (s_net): Sequential(
        (0): Linear(in_features=12288, out_features=64, bias=True)
        (1): Tanh()
        (2): Linear(in_features=64, out_features=64, bias=True)
        (3): Tanh()
        (4): Linear(in_features=64, out_features=12288, bias=True)
      )
      (t_net): Sequential(
        (0): Linear(in_features=12288, out_features=64, bias=True)
        (1): ReLU()
        (2): Linear(in_features=64, out_features=64, bias=True)
        (3): ReLU()
        (4): Linear(in_features=64, out_features=12288, bias=True)
      )
    )
    (39): BatchNorm()
    (40): LinearMaskedCoupling(
      (s_net): Sequential(
        (0): Linear(in_features=12288, out_features=64, bias=True)
        (1): Tanh()
        (2): Linear(in_features=64, out_features=64, bias=True)
        (3): Tanh()
        (4): Linear(in_features=64, out_features=12288, bias=True)
      )
      (t_net): Sequential(
        (0): Linear(in_features=12288, out_features=64, bias=True)
        (1): ReLU()
        (2): Linear(in_features=64, out_features=64, bias=True)
        (3): ReLU()
        (4): Linear(in_features=64, out_features=12288, bias=True)
      )
    )
    (41): BatchNorm()
    (42): LinearMaskedCoupling(
      (s_net): Sequential(
        (0): Linear(in_features=12288, out_features=64, bias=True)
        (1): Tanh()
        (2): Linear(in_features=64, out_features=64, bias=True)
        (3): Tanh()
        (4): Linear(in_features=64, out_features=12288, bias=True)
      )
      (t_net): Sequential(
        (0): Linear(in_features=12288, out_features=64, bias=True)
        (1): ReLU()
        (2): Linear(in_features=64, out_features=64, bias=True)
        (3): ReLU()
        (4): Linear(in_features=64, out_features=12288, bias=True)
      )
    )
    (43): BatchNorm()
    (44): LinearMaskedCoupling(
      (s_net): Sequential(
        (0): Linear(in_features=12288, out_features=64, bias=True)
        (1): Tanh()
        (2): Linear(in_features=64, out_features=64, bias=True)
        (3): Tanh()
        (4): Linear(in_features=64, out_features=12288, bias=True)
      )
      (t_net): Sequential(
        (0): Linear(in_features=12288, out_features=64, bias=True)
        (1): ReLU()
        (2): Linear(in_features=64, out_features=64, bias=True)
        (3): ReLU()
        (4): Linear(in_features=64, out_features=12288, bias=True)
      )
    )
    (45): BatchNorm()
    (46): LinearMaskedCoupling(
      (s_net): Sequential(
        (0): Linear(in_features=12288, out_features=64, bias=True)
        (1): Tanh()
        (2): Linear(in_features=64, out_features=64, bias=True)
        (3): Tanh()
        (4): Linear(in_features=64, out_features=12288, bias=True)
      )
      (t_net): Sequential(
        (0): Linear(in_features=12288, out_features=64, bias=True)
        (1): ReLU()
        (2): Linear(in_features=64, out_features=64, bias=True)
        (3): ReLU()
        (4): Linear(in_features=64, out_features=12288, bias=True)
      )
    )
    (47): BatchNorm()
    (48): LinearMaskedCoupling(
      (s_net): Sequential(
        (0): Linear(in_features=12288, out_features=64, bias=True)
        (1): Tanh()
        (2): Linear(in_features=64, out_features=64, bias=True)
        (3): Tanh()
        (4): Linear(in_features=64, out_features=12288, bias=True)
      )
      (t_net): Sequential(
        (0): Linear(in_features=12288, out_features=64, bias=True)
        (1): ReLU()
        (2): Linear(in_features=64, out_features=64, bias=True)
        (3): ReLU()
        (4): Linear(in_features=64, out_features=12288, bias=True)
      )
    )
    (49): BatchNorm()
    (50): LinearMaskedCoupling(
      (s_net): Sequential(
        (0): Linear(in_features=12288, out_features=64, bias=True)
        (1): Tanh()
        (2): Linear(in_features=64, out_features=64, bias=True)
        (3): Tanh()
        (4): Linear(in_features=64, out_features=12288, bias=True)
      )
      (t_net): Sequential(
        (0): Linear(in_features=12288, out_features=64, bias=True)
        (1): ReLU()
        (2): Linear(in_features=64, out_features=64, bias=True)
        (3): ReLU()
        (4): Linear(in_features=64, out_features=12288, bias=True)
      )
    )
    (51): BatchNorm()
    (52): LinearMaskedCoupling(
      (s_net): Sequential(
        (0): Linear(in_features=12288, out_features=64, bias=True)
        (1): Tanh()
        (2): Linear(in_features=64, out_features=64, bias=True)
        (3): Tanh()
        (4): Linear(in_features=64, out_features=12288, bias=True)
      )
      (t_net): Sequential(
        (0): Linear(in_features=12288, out_features=64, bias=True)
        (1): ReLU()
        (2): Linear(in_features=64, out_features=64, bias=True)
        (3): ReLU()
        (4): Linear(in_features=64, out_features=12288, bias=True)
      )
    )
    (53): BatchNorm()
    (54): LinearMaskedCoupling(
      (s_net): Sequential(
        (0): Linear(in_features=12288, out_features=64, bias=True)
        (1): Tanh()
        (2): Linear(in_features=64, out_features=64, bias=True)
        (3): Tanh()
        (4): Linear(in_features=64, out_features=12288, bias=True)
      )
      (t_net): Sequential(
        (0): Linear(in_features=12288, out_features=64, bias=True)
        (1): ReLU()
        (2): Linear(in_features=64, out_features=64, bias=True)
        (3): ReLU()
        (4): Linear(in_features=64, out_features=12288, bias=True)
      )
    )
    (55): BatchNorm()
    (56): LinearMaskedCoupling(
      (s_net): Sequential(
        (0): Linear(in_features=12288, out_features=64, bias=True)
        (1): Tanh()
        (2): Linear(in_features=64, out_features=64, bias=True)
        (3): Tanh()
        (4): Linear(in_features=64, out_features=12288, bias=True)
      )
      (t_net): Sequential(
        (0): Linear(in_features=12288, out_features=64, bias=True)
        (1): ReLU()
        (2): Linear(in_features=64, out_features=64, bias=True)
        (3): ReLU()
        (4): Linear(in_features=64, out_features=12288, bias=True)
      )
    )
    (57): BatchNorm()
    (58): LinearMaskedCoupling(
      (s_net): Sequential(
        (0): Linear(in_features=12288, out_features=64, bias=True)
        (1): Tanh()
        (2): Linear(in_features=64, out_features=64, bias=True)
        (3): Tanh()
        (4): Linear(in_features=64, out_features=12288, bias=True)
      )
      (t_net): Sequential(
        (0): Linear(in_features=12288, out_features=64, bias=True)
        (1): ReLU()
        (2): Linear(in_features=64, out_features=64, bias=True)
        (3): ReLU()
        (4): Linear(in_features=64, out_features=12288, bias=True)
      )
    )
    (59): BatchNorm()
    (60): LinearMaskedCoupling(
      (s_net): Sequential(
        (0): Linear(in_features=12288, out_features=64, bias=True)
        (1): Tanh()
        (2): Linear(in_features=64, out_features=64, bias=True)
        (3): Tanh()
        (4): Linear(in_features=64, out_features=12288, bias=True)
      )
      (t_net): Sequential(
        (0): Linear(in_features=12288, out_features=64, bias=True)
        (1): ReLU()
        (2): Linear(in_features=64, out_features=64, bias=True)
        (3): ReLU()
        (4): Linear(in_features=64, out_features=12288, bias=True)
      )
    )
    (61): BatchNorm()
    (62): LinearMaskedCoupling(
      (s_net): Sequential(
        (0): Linear(in_features=12288, out_features=64, bias=True)
        (1): Tanh()
        (2): Linear(in_features=64, out_features=64, bias=True)
        (3): Tanh()
        (4): Linear(in_features=64, out_features=12288, bias=True)
      )
      (t_net): Sequential(
        (0): Linear(in_features=12288, out_features=64, bias=True)
        (1): ReLU()
        (2): Linear(in_features=64, out_features=64, bias=True)
        (3): ReLU()
        (4): Linear(in_features=64, out_features=12288, bias=True)
      )
    )
    (63): BatchNorm()
    (64): LinearMaskedCoupling(
      (s_net): Sequential(
        (0): Linear(in_features=12288, out_features=64, bias=True)
        (1): Tanh()
        (2): Linear(in_features=64, out_features=64, bias=True)
        (3): Tanh()
        (4): Linear(in_features=64, out_features=12288, bias=True)
      )
      (t_net): Sequential(
        (0): Linear(in_features=12288, out_features=64, bias=True)
        (1): ReLU()
        (2): Linear(in_features=64, out_features=64, bias=True)
        (3): ReLU()
        (4): Linear(in_features=64, out_features=12288, bias=True)
      )
    )
    (65): BatchNorm()
    (66): LinearMaskedCoupling(
      (s_net): Sequential(
        (0): Linear(in_features=12288, out_features=64, bias=True)
        (1): Tanh()
        (2): Linear(in_features=64, out_features=64, bias=True)
        (3): Tanh()
        (4): Linear(in_features=64, out_features=12288, bias=True)
      )
      (t_net): Sequential(
        (0): Linear(in_features=12288, out_features=64, bias=True)
        (1): ReLU()
        (2): Linear(in_features=64, out_features=64, bias=True)
        (3): ReLU()
        (4): Linear(in_features=64, out_features=12288, bias=True)
      )
    )
    (67): BatchNorm()
    (68): LinearMaskedCoupling(
      (s_net): Sequential(
        (0): Linear(in_features=12288, out_features=64, bias=True)
        (1): Tanh()
        (2): Linear(in_features=64, out_features=64, bias=True)
        (3): Tanh()
        (4): Linear(in_features=64, out_features=12288, bias=True)
      )
      (t_net): Sequential(
        (0): Linear(in_features=12288, out_features=64, bias=True)
        (1): ReLU()
        (2): Linear(in_features=64, out_features=64, bias=True)
        (3): ReLU()
        (4): Linear(in_features=64, out_features=12288, bias=True)
      )
    )
    (69): BatchNorm()
    (70): LinearMaskedCoupling(
      (s_net): Sequential(
        (0): Linear(in_features=12288, out_features=64, bias=True)
        (1): Tanh()
        (2): Linear(in_features=64, out_features=64, bias=True)
        (3): Tanh()
        (4): Linear(in_features=64, out_features=12288, bias=True)
      )
      (t_net): Sequential(
        (0): Linear(in_features=12288, out_features=64, bias=True)
        (1): ReLU()
        (2): Linear(in_features=64, out_features=64, bias=True)
        (3): ReLU()
        (4): Linear(in_features=64, out_features=12288, bias=True)
      )
    )
    (71): BatchNorm()
    (72): LinearMaskedCoupling(
      (s_net): Sequential(
        (0): Linear(in_features=12288, out_features=64, bias=True)
        (1): Tanh()
        (2): Linear(in_features=64, out_features=64, bias=True)
        (3): Tanh()
        (4): Linear(in_features=64, out_features=12288, bias=True)
      )
      (t_net): Sequential(
        (0): Linear(in_features=12288, out_features=64, bias=True)
        (1): ReLU()
        (2): Linear(in_features=64, out_features=64, bias=True)
        (3): ReLU()
        (4): Linear(in_features=64, out_features=12288, bias=True)
      )
    )
    (73): BatchNorm()
    (74): LinearMaskedCoupling(
      (s_net): Sequential(
        (0): Linear(in_features=12288, out_features=64, bias=True)
        (1): Tanh()
        (2): Linear(in_features=64, out_features=64, bias=True)
        (3): Tanh()
        (4): Linear(in_features=64, out_features=12288, bias=True)
      )
      (t_net): Sequential(
        (0): Linear(in_features=12288, out_features=64, bias=True)
        (1): ReLU()
        (2): Linear(in_features=64, out_features=64, bias=True)
        (3): ReLU()
        (4): Linear(in_features=64, out_features=12288, bias=True)
      )
    )
    (75): BatchNorm()
    (76): LinearMaskedCoupling(
      (s_net): Sequential(
        (0): Linear(in_features=12288, out_features=64, bias=True)
        (1): Tanh()
        (2): Linear(in_features=64, out_features=64, bias=True)
        (3): Tanh()
        (4): Linear(in_features=64, out_features=12288, bias=True)
      )
      (t_net): Sequential(
        (0): Linear(in_features=12288, out_features=64, bias=True)
        (1): ReLU()
        (2): Linear(in_features=64, out_features=64, bias=True)
        (3): ReLU()
        (4): Linear(in_features=64, out_features=12288, bias=True)
      )
    )
    (77): BatchNorm()
    (78): LinearMaskedCoupling(
      (s_net): Sequential(
        (0): Linear(in_features=12288, out_features=64, bias=True)
        (1): Tanh()
        (2): Linear(in_features=64, out_features=64, bias=True)
        (3): Tanh()
        (4): Linear(in_features=64, out_features=12288, bias=True)
      )
      (t_net): Sequential(
        (0): Linear(in_features=12288, out_features=64, bias=True)
        (1): ReLU()
        (2): Linear(in_features=64, out_features=64, bias=True)
        (3): ReLU()
        (4): Linear(in_features=64, out_features=12288, bias=True)
      )
    )
    (79): BatchNorm()
    (80): LinearMaskedCoupling(
      (s_net): Sequential(
        (0): Linear(in_features=12288, out_features=64, bias=True)
        (1): Tanh()
        (2): Linear(in_features=64, out_features=64, bias=True)
        (3): Tanh()
        (4): Linear(in_features=64, out_features=12288, bias=True)
      )
      (t_net): Sequential(
        (0): Linear(in_features=12288, out_features=64, bias=True)
        (1): ReLU()
        (2): Linear(in_features=64, out_features=64, bias=True)
        (3): ReLU()
        (4): Linear(in_features=64, out_features=12288, bias=True)
      )
    )
    (81): BatchNorm()
    (82): LinearMaskedCoupling(
      (s_net): Sequential(
        (0): Linear(in_features=12288, out_features=64, bias=True)
        (1): Tanh()
        (2): Linear(in_features=64, out_features=64, bias=True)
        (3): Tanh()
        (4): Linear(in_features=64, out_features=12288, bias=True)
      )
      (t_net): Sequential(
        (0): Linear(in_features=12288, out_features=64, bias=True)
        (1): ReLU()
        (2): Linear(in_features=64, out_features=64, bias=True)
        (3): ReLU()
        (4): Linear(in_features=64, out_features=12288, bias=True)
      )
    )
    (83): BatchNorm()
    (84): LinearMaskedCoupling(
      (s_net): Sequential(
        (0): Linear(in_features=12288, out_features=64, bias=True)
        (1): Tanh()
        (2): Linear(in_features=64, out_features=64, bias=True)
        (3): Tanh()
        (4): Linear(in_features=64, out_features=12288, bias=True)
      )
      (t_net): Sequential(
        (0): Linear(in_features=12288, out_features=64, bias=True)
        (1): ReLU()
        (2): Linear(in_features=64, out_features=64, bias=True)
        (3): ReLU()
        (4): Linear(in_features=64, out_features=12288, bias=True)
      )
    )
    (85): BatchNorm()
    (86): LinearMaskedCoupling(
      (s_net): Sequential(
        (0): Linear(in_features=12288, out_features=64, bias=True)
        (1): Tanh()
        (2): Linear(in_features=64, out_features=64, bias=True)
        (3): Tanh()
        (4): Linear(in_features=64, out_features=12288, bias=True)
      )
      (t_net): Sequential(
        (0): Linear(in_features=12288, out_features=64, bias=True)
        (1): ReLU()
        (2): Linear(in_features=64, out_features=64, bias=True)
        (3): ReLU()
        (4): Linear(in_features=64, out_features=12288, bias=True)
      )
    )
    (87): BatchNorm()
    (88): LinearMaskedCoupling(
      (s_net): Sequential(
        (0): Linear(in_features=12288, out_features=64, bias=True)
        (1): Tanh()
        (2): Linear(in_features=64, out_features=64, bias=True)
        (3): Tanh()
        (4): Linear(in_features=64, out_features=12288, bias=True)
      )
      (t_net): Sequential(
        (0): Linear(in_features=12288, out_features=64, bias=True)
        (1): ReLU()
        (2): Linear(in_features=64, out_features=64, bias=True)
        (3): ReLU()
        (4): Linear(in_features=64, out_features=12288, bias=True)
      )
    )
    (89): BatchNorm()
    (90): LinearMaskedCoupling(
      (s_net): Sequential(
        (0): Linear(in_features=12288, out_features=64, bias=True)
        (1): Tanh()
        (2): Linear(in_features=64, out_features=64, bias=True)
        (3): Tanh()
        (4): Linear(in_features=64, out_features=12288, bias=True)
      )
      (t_net): Sequential(
        (0): Linear(in_features=12288, out_features=64, bias=True)
        (1): ReLU()
        (2): Linear(in_features=64, out_features=64, bias=True)
        (3): ReLU()
        (4): Linear(in_features=64, out_features=12288, bias=True)
      )
    )
    (91): BatchNorm()
    (92): LinearMaskedCoupling(
      (s_net): Sequential(
        (0): Linear(in_features=12288, out_features=64, bias=True)
        (1): Tanh()
        (2): Linear(in_features=64, out_features=64, bias=True)
        (3): Tanh()
        (4): Linear(in_features=64, out_features=12288, bias=True)
      )
      (t_net): Sequential(
        (0): Linear(in_features=12288, out_features=64, bias=True)
        (1): ReLU()
        (2): Linear(in_features=64, out_features=64, bias=True)
        (3): ReLU()
        (4): Linear(in_features=64, out_features=12288, bias=True)
      )
    )
    (93): BatchNorm()
    (94): LinearMaskedCoupling(
      (s_net): Sequential(
        (0): Linear(in_features=12288, out_features=64, bias=True)
        (1): Tanh()
        (2): Linear(in_features=64, out_features=64, bias=True)
        (3): Tanh()
        (4): Linear(in_features=64, out_features=12288, bias=True)
      )
      (t_net): Sequential(
        (0): Linear(in_features=12288, out_features=64, bias=True)
        (1): ReLU()
        (2): Linear(in_features=64, out_features=64, bias=True)
        (3): ReLU()
        (4): Linear(in_features=64, out_features=12288, bias=True)
      )
    )
    (95): BatchNorm()
    (96): LinearMaskedCoupling(
      (s_net): Sequential(
        (0): Linear(in_features=12288, out_features=64, bias=True)
        (1): Tanh()
        (2): Linear(in_features=64, out_features=64, bias=True)
        (3): Tanh()
        (4): Linear(in_features=64, out_features=12288, bias=True)
      )
      (t_net): Sequential(
        (0): Linear(in_features=12288, out_features=64, bias=True)
        (1): ReLU()
        (2): Linear(in_features=64, out_features=64, bias=True)
        (3): ReLU()
        (4): Linear(in_features=64, out_features=12288, bias=True)
      )
    )
    (97): BatchNorm()
    (98): LinearMaskedCoupling(
      (s_net): Sequential(
        (0): Linear(in_features=12288, out_features=64, bias=True)
        (1): Tanh()
        (2): Linear(in_features=64, out_features=64, bias=True)
        (3): Tanh()
        (4): Linear(in_features=64, out_features=12288, bias=True)
      )
      (t_net): Sequential(
        (0): Linear(in_features=12288, out_features=64, bias=True)
        (1): ReLU()
        (2): Linear(in_features=64, out_features=64, bias=True)
        (3): ReLU()
        (4): Linear(in_features=64, out_features=12288, bias=True)
      )
    )
    (99): BatchNorm()
    (100): LinearMaskedCoupling(
      (s_net): Sequential(
        (0): Linear(in_features=12288, out_features=64, bias=True)
        (1): Tanh()
        (2): Linear(in_features=64, out_features=64, bias=True)
        (3): Tanh()
        (4): Linear(in_features=64, out_features=12288, bias=True)
      )
      (t_net): Sequential(
        (0): Linear(in_features=12288, out_features=64, bias=True)
        (1): ReLU()
        (2): Linear(in_features=64, out_features=64, bias=True)
        (3): ReLU()
        (4): Linear(in_features=64, out_features=12288, bias=True)
      )
    )
    (101): BatchNorm()
    (102): LinearMaskedCoupling(
      (s_net): Sequential(
        (0): Linear(in_features=12288, out_features=64, bias=True)
        (1): Tanh()
        (2): Linear(in_features=64, out_features=64, bias=True)
        (3): Tanh()
        (4): Linear(in_features=64, out_features=12288, bias=True)
      )
      (t_net): Sequential(
        (0): Linear(in_features=12288, out_features=64, bias=True)
        (1): ReLU()
        (2): Linear(in_features=64, out_features=64, bias=True)
        (3): ReLU()
        (4): Linear(in_features=64, out_features=12288, bias=True)
      )
    )
    (103): BatchNorm()
    (104): LinearMaskedCoupling(
      (s_net): Sequential(
        (0): Linear(in_features=12288, out_features=64, bias=True)
        (1): Tanh()
        (2): Linear(in_features=64, out_features=64, bias=True)
        (3): Tanh()
        (4): Linear(in_features=64, out_features=12288, bias=True)
      )
      (t_net): Sequential(
        (0): Linear(in_features=12288, out_features=64, bias=True)
        (1): ReLU()
        (2): Linear(in_features=64, out_features=64, bias=True)
        (3): ReLU()
        (4): Linear(in_features=64, out_features=12288, bias=True)
      )
    )
    (105): BatchNorm()
    (106): LinearMaskedCoupling(
      (s_net): Sequential(
        (0): Linear(in_features=12288, out_features=64, bias=True)
        (1): Tanh()
        (2): Linear(in_features=64, out_features=64, bias=True)
        (3): Tanh()
        (4): Linear(in_features=64, out_features=12288, bias=True)
      )
      (t_net): Sequential(
        (0): Linear(in_features=12288, out_features=64, bias=True)
        (1): ReLU()
        (2): Linear(in_features=64, out_features=64, bias=True)
        (3): ReLU()
        (4): Linear(in_features=64, out_features=12288, bias=True)
      )
    )
    (107): BatchNorm()
    (108): LinearMaskedCoupling(
      (s_net): Sequential(
        (0): Linear(in_features=12288, out_features=64, bias=True)
        (1): Tanh()
        (2): Linear(in_features=64, out_features=64, bias=True)
        (3): Tanh()
        (4): Linear(in_features=64, out_features=12288, bias=True)
      )
      (t_net): Sequential(
        (0): Linear(in_features=12288, out_features=64, bias=True)
        (1): ReLU()
        (2): Linear(in_features=64, out_features=64, bias=True)
        (3): ReLU()
        (4): Linear(in_features=64, out_features=12288, bias=True)
      )
    )
    (109): BatchNorm()
    (110): LinearMaskedCoupling(
      (s_net): Sequential(
        (0): Linear(in_features=12288, out_features=64, bias=True)
        (1): Tanh()
        (2): Linear(in_features=64, out_features=64, bias=True)
        (3): Tanh()
        (4): Linear(in_features=64, out_features=12288, bias=True)
      )
      (t_net): Sequential(
        (0): Linear(in_features=12288, out_features=64, bias=True)
        (1): ReLU()
        (2): Linear(in_features=64, out_features=64, bias=True)
        (3): ReLU()
        (4): Linear(in_features=64, out_features=12288, bias=True)
      )
    )
    (111): BatchNorm()
    (112): LinearMaskedCoupling(
      (s_net): Sequential(
        (0): Linear(in_features=12288, out_features=64, bias=True)
        (1): Tanh()
        (2): Linear(in_features=64, out_features=64, bias=True)
        (3): Tanh()
        (4): Linear(in_features=64, out_features=12288, bias=True)
      )
      (t_net): Sequential(
        (0): Linear(in_features=12288, out_features=64, bias=True)
        (1): ReLU()
        (2): Linear(in_features=64, out_features=64, bias=True)
        (3): ReLU()
        (4): Linear(in_features=64, out_features=12288, bias=True)
      )
    )
    (113): BatchNorm()
    (114): LinearMaskedCoupling(
      (s_net): Sequential(
        (0): Linear(in_features=12288, out_features=64, bias=True)
        (1): Tanh()
        (2): Linear(in_features=64, out_features=64, bias=True)
        (3): Tanh()
        (4): Linear(in_features=64, out_features=12288, bias=True)
      )
      (t_net): Sequential(
        (0): Linear(in_features=12288, out_features=64, bias=True)
        (1): ReLU()
        (2): Linear(in_features=64, out_features=64, bias=True)
        (3): ReLU()
        (4): Linear(in_features=64, out_features=12288, bias=True)
      )
    )
    (115): BatchNorm()
    (116): LinearMaskedCoupling(
      (s_net): Sequential(
        (0): Linear(in_features=12288, out_features=64, bias=True)
        (1): Tanh()
        (2): Linear(in_features=64, out_features=64, bias=True)
        (3): Tanh()
        (4): Linear(in_features=64, out_features=12288, bias=True)
      )
      (t_net): Sequential(
        (0): Linear(in_features=12288, out_features=64, bias=True)
        (1): ReLU()
        (2): Linear(in_features=64, out_features=64, bias=True)
        (3): ReLU()
        (4): Linear(in_features=64, out_features=12288, bias=True)
      )
    )
    (117): BatchNorm()
    (118): LinearMaskedCoupling(
      (s_net): Sequential(
        (0): Linear(in_features=12288, out_features=64, bias=True)
        (1): Tanh()
        (2): Linear(in_features=64, out_features=64, bias=True)
        (3): Tanh()
        (4): Linear(in_features=64, out_features=12288, bias=True)
      )
      (t_net): Sequential(
        (0): Linear(in_features=12288, out_features=64, bias=True)
        (1): ReLU()
        (2): Linear(in_features=64, out_features=64, bias=True)
        (3): ReLU()
        (4): Linear(in_features=64, out_features=12288, bias=True)
      )
    )
    (119): BatchNorm()
    (120): LinearMaskedCoupling(
      (s_net): Sequential(
        (0): Linear(in_features=12288, out_features=64, bias=True)
        (1): Tanh()
        (2): Linear(in_features=64, out_features=64, bias=True)
        (3): Tanh()
        (4): Linear(in_features=64, out_features=12288, bias=True)
      )
      (t_net): Sequential(
        (0): Linear(in_features=12288, out_features=64, bias=True)
        (1): ReLU()
        (2): Linear(in_features=64, out_features=64, bias=True)
        (3): ReLU()
        (4): Linear(in_features=64, out_features=12288, bias=True)
      )
    )
    (121): BatchNorm()
    (122): LinearMaskedCoupling(
      (s_net): Sequential(
        (0): Linear(in_features=12288, out_features=64, bias=True)
        (1): Tanh()
        (2): Linear(in_features=64, out_features=64, bias=True)
        (3): Tanh()
        (4): Linear(in_features=64, out_features=12288, bias=True)
      )
      (t_net): Sequential(
        (0): Linear(in_features=12288, out_features=64, bias=True)
        (1): ReLU()
        (2): Linear(in_features=64, out_features=64, bias=True)
        (3): ReLU()
        (4): Linear(in_features=64, out_features=12288, bias=True)
      )
    )
    (123): BatchNorm()
    (124): LinearMaskedCoupling(
      (s_net): Sequential(
        (0): Linear(in_features=12288, out_features=64, bias=True)
        (1): Tanh()
        (2): Linear(in_features=64, out_features=64, bias=True)
        (3): Tanh()
        (4): Linear(in_features=64, out_features=12288, bias=True)
      )
      (t_net): Sequential(
        (0): Linear(in_features=12288, out_features=64, bias=True)
        (1): ReLU()
        (2): Linear(in_features=64, out_features=64, bias=True)
        (3): ReLU()
        (4): Linear(in_features=64, out_features=12288, bias=True)
      )
    )
    (125): BatchNorm()
    (126): LinearMaskedCoupling(
      (s_net): Sequential(
        (0): Linear(in_features=12288, out_features=64, bias=True)
        (1): Tanh()
        (2): Linear(in_features=64, out_features=64, bias=True)
        (3): Tanh()
        (4): Linear(in_features=64, out_features=12288, bias=True)
      )
      (t_net): Sequential(
        (0): Linear(in_features=12288, out_features=64, bias=True)
        (1): ReLU()
        (2): Linear(in_features=64, out_features=64, bias=True)
        (3): ReLU()
        (4): Linear(in_features=64, out_features=12288, bias=True)
      )
    )
    (127): BatchNorm()
  )
)
Evaluate (epoch 0) -- logp(x) = -14233.260 +/- 78.796
Evaluate (epoch 0) -- logp(x) = -95852.734 +/- 4034.554
Evaluate (epoch 0) -- logp(x) = -126737.078 +/- 6495.576
Evaluate (epoch 0) -- logp(x) = -7271756.000 +/- 502271.344
Evaluate (epoch 0) -- logp(x) = -347987.406 +/- 18191.471
{'activation_fn': 'relu',
…
 'flip_toy_var_order': False,
 'generate': False,
 'hidden_size': 64,
 'input_dims': torch.Size([3, 64, 64]),
 'input_order': 'sequential',
 'input_size': 12288,
 'log_interval': 1000,
 'lr': 0.0001,
 'model': 'realnvp',
 'n_blocks': 128,
 'n_components': 1,
 'n_epochs': 50,
 'n_hidden': 1,
 'no_batch_norm': False,
 'no_cuda': False,
 'output_dir': './results/mafencoderFalse_channel-1_nblocks128/',
 'restore_file': None,
 'results_file': 'results.txt',
 'seed': 1,
 'start_epoch': 0,
 'train': True,
 'use_encoder': False}
RealNVP(
  (net): FlowSequential(
    (0): LinearMaskedCoupling(
      (s_net): Sequential(
        (0): Linear(in_features=12288, out_features=64, bias=True)
        (1): Tanh()
        (2): Linear(in_features=64, out_features=64, bias=True)
        (3): Tanh()
        (4): Linear(in_features=64, out_features=12288, bias=True)
      )
      (t_net): Sequential(
        (0): Linear(in_features=12288, out_features=64, bias=True)
        (1): ReLU()
        (2): Linear(in_features=64, out_features=64, bias=True)
        (3): ReLU()
        (4): Linear(in_features=64, out_features=12288, bias=True)
      )
    )
    (1): BatchNorm()
    (2): LinearMaskedCoupling(
      (s_net): Sequential(
        (0): Linear(in_features=12288, out_features=64, bias=True)
        (1): Tanh()
        (2): Linear(in_features=64, out_features=64, bias=True)
        (3): Tanh()
        (4): Linear(in_features=64, out_features=12288, bias=True)
      )
      (t_net): Sequential(
        (0): Linear(in_features=12288, out_features=64, bias=True)
        (1): ReLU()
        (2): Linear(in_features=64, out_features=64, bias=True)
        (3): ReLU()
        (4): Linear(in_features=64, out_features=12288, bias=True)
      )
    )
    (3): BatchNorm()
    (4): LinearMaskedCoupling(
      (s_net): Sequential(
        (0): Linear(in_features=12288, out_features=64, bias=True)
        (1): Tanh()
        (2): Linear(in_features=64, out_features=64, bias=True)
        (3): Tanh()
        (4): Linear(in_features=64, out_features=12288, bias=True)
      )
      (t_net): Sequential(
        (0): Linear(in_features=12288, out_features=64, bias=True)
        (1): ReLU()
        (2): Linear(in_features=64, out_features=64, bias=True)
        (3): ReLU()
        (4): Linear(in_features=64, out_features=12288, bias=True)
      )
    )
    (5): BatchNorm()
    (6): LinearMaskedCoupling(
      (s_net): Sequential(
        (0): Linear(in_features=12288, out_features=64, bias=True)
        (1): Tanh()
        (2): Linear(in_features=64, out_features=64, bias=True)
        (3): Tanh()
        (4): Linear(in_features=64, out_features=12288, bias=True)
      )
      (t_net): Sequential(
        (0): Linear(in_features=12288, out_features=64, bias=True)
        (1): ReLU()
        (2): Linear(in_features=64, out_features=64, bias=True)
        (3): ReLU()
        (4): Linear(in_features=64, out_features=12288, bias=True)
      )
    )
    (7): BatchNorm()
    (8): LinearMaskedCoupling(
      (s_net): Sequential(
        (0): Linear(in_features=12288, out_features=64, bias=True)
        (1): Tanh()
        (2): Linear(in_features=64, out_features=64, bias=True)
        (3): Tanh()
        (4): Linear(in_features=64, out_features=12288, bias=True)
      )
      (t_net): Sequential(
        (0): Linear(in_features=12288, out_features=64, bias=True)
        (1): ReLU()
        (2): Linear(in_features=64, out_features=64, bias=True)
        (3): ReLU()
        (4): Linear(in_features=64, out_features=12288, bias=True)
      )
    )
    (9): BatchNorm()
    (10): LinearMaskedCoupling(
      (s_net): Sequential(
        (0): Linear(in_features=12288, out_features=64, bias=True)
        (1): Tanh()
        (2): Linear(in_features=64, out_features=64, bias=True)
        (3): Tanh()
        (4): Linear(in_features=64, out_features=12288, bias=True)
      )
      (t_net): Sequential(
        (0): Linear(in_features=12288, out_features=64, bias=True)
        (1): ReLU()
        (2): Linear(in_features=64, out_features=64, bias=True)
        (3): ReLU()
        (4): Linear(in_features=64, out_features=12288, bias=True)
      )
    )
    (11): BatchNorm()
    (12): LinearMaskedCoupling(
      (s_net): Sequential(
        (0): Linear(in_features=12288, out_features=64, bias=True)
        (1): Tanh()
        (2): Linear(in_features=64, out_features=64, bias=True)
        (3): Tanh()
        (4): Linear(in_features=64, out_features=12288, bias=True)
      )
      (t_net): Sequential(
        (0): Linear(in_features=12288, out_features=64, bias=True)
        (1): ReLU()
        (2): Linear(in_features=64, out_features=64, bias=True)
        (3): ReLU()
        (4): Linear(in_features=64, out_features=12288, bias=True)
      )
    )
    (13): BatchNorm()
    (14): LinearMaskedCoupling(
      (s_net): Sequential(
        (0): Linear(in_features=12288, out_features=64, bias=True)
        (1): Tanh()
        (2): Linear(in_features=64, out_features=64, bias=True)
        (3): Tanh()
        (4): Linear(in_features=64, out_features=12288, bias=True)
      )
      (t_net): Sequential(
        (0): Linear(in_features=12288, out_features=64, bias=True)
        (1): ReLU()
        (2): Linear(in_features=64, out_features=64, bias=True)
        (3): ReLU()
        (4): Linear(in_features=64, out_features=12288, bias=True)
      )
    )
    (15): BatchNorm()
    (16): LinearMaskedCoupling(
      (s_net): Sequential(
        (0): Linear(in_features=12288, out_features=64, bias=True)
        (1): Tanh()
        (2): Linear(in_features=64, out_features=64, bias=True)
        (3): Tanh()
        (4): Linear(in_features=64, out_features=12288, bias=True)
      )
      (t_net): Sequential(
        (0): Linear(in_features=12288, out_features=64, bias=True)
        (1): ReLU()
        (2): Linear(in_features=64, out_features=64, bias=True)
        (3): ReLU()
        (4): Linear(in_features=64, out_features=12288, bias=True)
      )
    )
    (17): BatchNorm()
    (18): LinearMaskedCoupling(
      (s_net): Sequential(
        (0): Linear(in_features=12288, out_features=64, bias=True)
        (1): Tanh()
        (2): Linear(in_features=64, out_features=64, bias=True)
        (3): Tanh()
        (4): Linear(in_features=64, out_features=12288, bias=True)
      )
      (t_net): Sequential(
        (0): Linear(in_features=12288, out_features=64, bias=True)
        (1): ReLU()
        (2): Linear(in_features=64, out_features=64, bias=True)
        (3): ReLU()
        (4): Linear(in_features=64, out_features=12288, bias=True)
      )
    )
    (19): BatchNorm()
    (20): LinearMaskedCoupling(
      (s_net): Sequential(
        (0): Linear(in_features=12288, out_features=64, bias=True)
        (1): Tanh()
        (2): Linear(in_features=64, out_features=64, bias=True)
        (3): Tanh()
        (4): Linear(in_features=64, out_features=12288, bias=True)
      )
      (t_net): Sequential(
        (0): Linear(in_features=12288, out_features=64, bias=True)
        (1): ReLU()
        (2): Linear(in_features=64, out_features=64, bias=True)
        (3): ReLU()
        (4): Linear(in_features=64, out_features=12288, bias=True)
      )
    )
    (21): BatchNorm()
    (22): LinearMaskedCoupling(
      (s_net): Sequential(
        (0): Linear(in_features=12288, out_features=64, bias=True)
        (1): Tanh()
        (2): Linear(in_features=64, out_features=64, bias=True)
        (3): Tanh()
        (4): Linear(in_features=64, out_features=12288, bias=True)
      )
      (t_net): Sequential(
        (0): Linear(in_features=12288, out_features=64, bias=True)
        (1): ReLU()
        (2): Linear(in_features=64, out_features=64, bias=True)
        (3): ReLU()
        (4): Linear(in_features=64, out_features=12288, bias=True)
      )
    )
    (23): BatchNorm()
    (24): LinearMaskedCoupling(
      (s_net): Sequential(
        (0): Linear(in_features=12288, out_features=64, bias=True)
        (1): Tanh()
        (2): Linear(in_features=64, out_features=64, bias=True)
        (3): Tanh()
        (4): Linear(in_features=64, out_features=12288, bias=True)
      )
      (t_net): Sequential(
        (0): Linear(in_features=12288, out_features=64, bias=True)
        (1): ReLU()
        (2): Linear(in_features=64, out_features=64, bias=True)
        (3): ReLU()
        (4): Linear(in_features=64, out_features=12288, bias=True)
      )
    )
    (25): BatchNorm()
    (26): LinearMaskedCoupling(
      (s_net): Sequential(
        (0): Linear(in_features=12288, out_features=64, bias=True)
        (1): Tanh()
        (2): Linear(in_features=64, out_features=64, bias=True)
        (3): Tanh()
        (4): Linear(in_features=64, out_features=12288, bias=True)
      )
      (t_net): Sequential(
        (0): Linear(in_features=12288, out_features=64, bias=True)
        (1): ReLU()
        (2): Linear(in_features=64, out_features=64, bias=True)
        (3): ReLU()
        (4): Linear(in_features=64, out_features=12288, bias=True)
      )
    )
    (27): BatchNorm()
    (28): LinearMaskedCoupling(
      (s_net): Sequential(
        (0): Linear(in_features=12288, out_features=64, bias=True)
        (1): Tanh()
        (2): Linear(in_features=64, out_features=64, bias=True)
        (3): Tanh()
        (4): Linear(in_features=64, out_features=12288, bias=True)
      )
      (t_net): Sequential(
        (0): Linear(in_features=12288, out_features=64, bias=True)
        (1): ReLU()
        (2): Linear(in_features=64, out_features=64, bias=True)
        (3): ReLU()
        (4): Linear(in_features=64, out_features=12288, bias=True)
      )
    )
    (29): BatchNorm()
    (30): LinearMaskedCoupling(
      (s_net): Sequential(
        (0): Linear(in_features=12288, out_features=64, bias=True)
        (1): Tanh()
        (2): Linear(in_features=64, out_features=64, bias=True)
        (3): Tanh()
        (4): Linear(in_features=64, out_features=12288, bias=True)
      )
      (t_net): Sequential(
        (0): Linear(in_features=12288, out_features=64, bias=True)
        (1): ReLU()
        (2): Linear(in_features=64, out_features=64, bias=True)
        (3): ReLU()
        (4): Linear(in_features=64, out_features=12288, bias=True)
      )
    )
    (31): BatchNorm()
    (32): LinearMaskedCoupling(
      (s_net): Sequential(
        (0): Linear(in_features=12288, out_features=64, bias=True)
        (1): Tanh()
        (2): Linear(in_features=64, out_features=64, bias=True)
        (3): Tanh()
        (4): Linear(in_features=64, out_features=12288, bias=True)
      )
      (t_net): Sequential(
        (0): Linear(in_features=12288, out_features=64, bias=True)
        (1): ReLU()
        (2): Linear(in_features=64, out_features=64, bias=True)
        (3): ReLU()
        (4): Linear(in_features=64, out_features=12288, bias=True)
      )
    )
    (33): BatchNorm()
    (34): LinearMaskedCoupling(
      (s_net): Sequential(
        (0): Linear(in_features=12288, out_features=64, bias=True)
        (1): Tanh()
        (2): Linear(in_features=64, out_features=64, bias=True)
        (3): Tanh()
        (4): Linear(in_features=64, out_features=12288, bias=True)
      )
      (t_net): Sequential(
        (0): Linear(in_features=12288, out_features=64, bias=True)
        (1): ReLU()
        (2): Linear(in_features=64, out_features=64, bias=True)
        (3): ReLU()
        (4): Linear(in_features=64, out_features=12288, bias=True)
      )
    )
    (35): BatchNorm()
    (36): LinearMaskedCoupling(
      (s_net): Sequential(
        (0): Linear(in_features=12288, out_features=64, bias=True)
        (1): Tanh()
        (2): Linear(in_features=64, out_features=64, bias=True)
        (3): Tanh()
        (4): Linear(in_features=64, out_features=12288, bias=True)
      )
      (t_net): Sequential(
        (0): Linear(in_features=12288, out_features=64, bias=True)
        (1): ReLU()
        (2): Linear(in_features=64, out_features=64, bias=True)
        (3): ReLU()
        (4): Linear(in_features=64, out_features=12288, bias=True)
      )
    )
    (37): BatchNorm()
    (38): LinearMaskedCoupling(
      (s_net): Sequential(
        (0): Linear(in_features=12288, out_features=64, bias=True)
        (1): Tanh()
        (2): Linear(in_features=64, out_features=64, bias=True)
        (3): Tanh()
        (4): Linear(in_features=64, out_features=12288, bias=True)
      )
      (t_net): Sequential(
        (0): Linear(in_features=12288, out_features=64, bias=True)
        (1): ReLU()
        (2): Linear(in_features=64, out_features=64, bias=True)
        (3): ReLU()
        (4): Linear(in_features=64, out_features=12288, bias=True)
      )
    )
    (39): BatchNorm()
    (40): LinearMaskedCoupling(
      (s_net): Sequential(
        (0): Linear(in_features=12288, out_features=64, bias=True)
        (1): Tanh()
        (2): Linear(in_features=64, out_features=64, bias=True)
        (3): Tanh()
        (4): Linear(in_features=64, out_features=12288, bias=True)
      )
      (t_net): Sequential(
        (0): Linear(in_features=12288, out_features=64, bias=True)
        (1): ReLU()
        (2): Linear(in_features=64, out_features=64, bias=True)
        (3): ReLU()
        (4): Linear(in_features=64, out_features=12288, bias=True)
      )
    )
    (41): BatchNorm()
    (42): LinearMaskedCoupling(
      (s_net): Sequential(
        (0): Linear(in_features=12288, out_features=64, bias=True)
        (1): Tanh()
        (2): Linear(in_features=64, out_features=64, bias=True)
        (3): Tanh()
        (4): Linear(in_features=64, out_features=12288, bias=True)
      )
      (t_net): Sequential(
        (0): Linear(in_features=12288, out_features=64, bias=True)
        (1): ReLU()
        (2): Linear(in_features=64, out_features=64, bias=True)
        (3): ReLU()
        (4): Linear(in_features=64, out_features=12288, bias=True)
      )
    )
    (43): BatchNorm()
    (44): LinearMaskedCoupling(
      (s_net): Sequential(
        (0): Linear(in_features=12288, out_features=64, bias=True)
        (1): Tanh()
        (2): Linear(in_features=64, out_features=64, bias=True)
        (3): Tanh()
        (4): Linear(in_features=64, out_features=12288, bias=True)
      )
      (t_net): Sequential(
        (0): Linear(in_features=12288, out_features=64, bias=True)
        (1): ReLU()
        (2): Linear(in_features=64, out_features=64, bias=True)
        (3): ReLU()
        (4): Linear(in_features=64, out_features=12288, bias=True)
      )
    )
    (45): BatchNorm()
    (46): LinearMaskedCoupling(
      (s_net): Sequential(
        (0): Linear(in_features=12288, out_features=64, bias=True)
        (1): Tanh()
        (2): Linear(in_features=64, out_features=64, bias=True)
        (3): Tanh()
        (4): Linear(in_features=64, out_features=12288, bias=True)
      )
      (t_net): Sequential(
        (0): Linear(in_features=12288, out_features=64, bias=True)
        (1): ReLU()
        (2): Linear(in_features=64, out_features=64, bias=True)
        (3): ReLU()
        (4): Linear(in_features=64, out_features=12288, bias=True)
      )
    )
    (47): BatchNorm()
    (48): LinearMaskedCoupling(
      (s_net): Sequential(
        (0): Linear(in_features=12288, out_features=64, bias=True)
        (1): Tanh()
        (2): Linear(in_features=64, out_features=64, bias=True)
        (3): Tanh()
        (4): Linear(in_features=64, out_features=12288, bias=True)
      )
      (t_net): Sequential(
        (0): Linear(in_features=12288, out_features=64, bias=True)
        (1): ReLU()
        (2): Linear(in_features=64, out_features=64, bias=True)
        (3): ReLU()
        (4): Linear(in_features=64, out_features=12288, bias=True)
      )
    )
    (49): BatchNorm()
    (50): LinearMaskedCoupling(
      (s_net): Sequential(
        (0): Linear(in_features=12288, out_features=64, bias=True)
        (1): Tanh()
        (2): Linear(in_features=64, out_features=64, bias=True)
        (3): Tanh()
        (4): Linear(in_features=64, out_features=12288, bias=True)
      )
      (t_net): Sequential(
        (0): Linear(in_features=12288, out_features=64, bias=True)
        (1): ReLU()
        (2): Linear(in_features=64, out_features=64, bias=True)
        (3): ReLU()
        (4): Linear(in_features=64, out_features=12288, bias=True)
      )
    )
    (51): BatchNorm()
    (52): LinearMaskedCoupling(
      (s_net): Sequential(
        (0): Linear(in_features=12288, out_features=64, bias=True)
        (1): Tanh()
        (2): Linear(in_features=64, out_features=64, bias=True)
        (3): Tanh()
        (4): Linear(in_features=64, out_features=12288, bias=True)
      )
      (t_net): Sequential(
        (0): Linear(in_features=12288, out_features=64, bias=True)
        (1): ReLU()
        (2): Linear(in_features=64, out_features=64, bias=True)
        (3): ReLU()
        (4): Linear(in_features=64, out_features=12288, bias=True)
      )
    )
    (53): BatchNorm()
    (54): LinearMaskedCoupling(
      (s_net): Sequential(
        (0): Linear(in_features=12288, out_features=64, bias=True)
        (1): Tanh()
        (2): Linear(in_features=64, out_features=64, bias=True)
        (3): Tanh()
        (4): Linear(in_features=64, out_features=12288, bias=True)
      )
      (t_net): Sequential(
        (0): Linear(in_features=12288, out_features=64, bias=True)
        (1): ReLU()
        (2): Linear(in_features=64, out_features=64, bias=True)
        (3): ReLU()
        (4): Linear(in_features=64, out_features=12288, bias=True)
      )
    )
    (55): BatchNorm()
    (56): LinearMaskedCoupling(
      (s_net): Sequential(
        (0): Linear(in_features=12288, out_features=64, bias=True)
        (1): Tanh()
        (2): Linear(in_features=64, out_features=64, bias=True)
        (3): Tanh()
        (4): Linear(in_features=64, out_features=12288, bias=True)
      )
      (t_net): Sequential(
        (0): Linear(in_features=12288, out_features=64, bias=True)
        (1): ReLU()
        (2): Linear(in_features=64, out_features=64, bias=True)
        (3): ReLU()
        (4): Linear(in_features=64, out_features=12288, bias=True)
      )
    )
    (57): BatchNorm()
    (58): LinearMaskedCoupling(
      (s_net): Sequential(
        (0): Linear(in_features=12288, out_features=64, bias=True)
        (1): Tanh()
        (2): Linear(in_features=64, out_features=64, bias=True)
        (3): Tanh()
        (4): Linear(in_features=64, out_features=12288, bias=True)
      )
      (t_net): Sequential(
        (0): Linear(in_features=12288, out_features=64, bias=True)
        (1): ReLU()
        (2): Linear(in_features=64, out_features=64, bias=True)
        (3): ReLU()
        (4): Linear(in_features=64, out_features=12288, bias=True)
      )
    )
    (59): BatchNorm()
    (60): LinearMaskedCoupling(
      (s_net): Sequential(
        (0): Linear(in_features=12288, out_features=64, bias=True)
        (1): Tanh()
        (2): Linear(in_features=64, out_features=64, bias=True)
        (3): Tanh()
        (4): Linear(in_features=64, out_features=12288, bias=True)
      )
      (t_net): Sequential(
        (0): Linear(in_features=12288, out_features=64, bias=True)
        (1): ReLU()
        (2): Linear(in_features=64, out_features=64, bias=True)
        (3): ReLU()
        (4): Linear(in_features=64, out_features=12288, bias=True)
      )
    )
    (61): BatchNorm()
    (62): LinearMaskedCoupling(
      (s_net): Sequential(
        (0): Linear(in_features=12288, out_features=64, bias=True)
        (1): Tanh()
        (2): Linear(in_features=64, out_features=64, bias=True)
        (3): Tanh()
        (4): Linear(in_features=64, out_features=12288, bias=True)
      )
      (t_net): Sequential(
        (0): Linear(in_features=12288, out_features=64, bias=True)
        (1): ReLU()
        (2): Linear(in_features=64, out_features=64, bias=True)
        (3): ReLU()
        (4): Linear(in_features=64, out_features=12288, bias=True)
      )
    )
    (63): BatchNorm()
    (64): LinearMaskedCoupling(
      (s_net): Sequential(
        (0): Linear(in_features=12288, out_features=64, bias=True)
        (1): Tanh()
        (2): Linear(in_features=64, out_features=64, bias=True)
        (3): Tanh()
        (4): Linear(in_features=64, out_features=12288, bias=True)
      )
      (t_net): Sequential(
        (0): Linear(in_features=12288, out_features=64, bias=True)
        (1): ReLU()
        (2): Linear(in_features=64, out_features=64, bias=True)
        (3): ReLU()
        (4): Linear(in_features=64, out_features=12288, bias=True)
      )
    )
    (65): BatchNorm()
    (66): LinearMaskedCoupling(
      (s_net): Sequential(
        (0): Linear(in_features=12288, out_features=64, bias=True)
        (1): Tanh()
        (2): Linear(in_features=64, out_features=64, bias=True)
        (3): Tanh()
        (4): Linear(in_features=64, out_features=12288, bias=True)
      )
      (t_net): Sequential(
        (0): Linear(in_features=12288, out_features=64, bias=True)
        (1): ReLU()
        (2): Linear(in_features=64, out_features=64, bias=True)
        (3): ReLU()
        (4): Linear(in_features=64, out_features=12288, bias=True)
      )
    )
    (67): BatchNorm()
    (68): LinearMaskedCoupling(
      (s_net): Sequential(
        (0): Linear(in_features=12288, out_features=64, bias=True)
        (1): Tanh()
        (2): Linear(in_features=64, out_features=64, bias=True)
        (3): Tanh()
        (4): Linear(in_features=64, out_features=12288, bias=True)
      )
      (t_net): Sequential(
        (0): Linear(in_features=12288, out_features=64, bias=True)
        (1): ReLU()
        (2): Linear(in_features=64, out_features=64, bias=True)
        (3): ReLU()
        (4): Linear(in_features=64, out_features=12288, bias=True)
      )
    )
    (69): BatchNorm()
    (70): LinearMaskedCoupling(
      (s_net): Sequential(
        (0): Linear(in_features=12288, out_features=64, bias=True)
        (1): Tanh()
        (2): Linear(in_features=64, out_features=64, bias=True)
        (3): Tanh()
        (4): Linear(in_features=64, out_features=12288, bias=True)
      )
      (t_net): Sequential(
        (0): Linear(in_features=12288, out_features=64, bias=True)
        (1): ReLU()
        (2): Linear(in_features=64, out_features=64, bias=True)
        (3): ReLU()
        (4): Linear(in_features=64, out_features=12288, bias=True)
      )
    )
    (71): BatchNorm()
    (72): LinearMaskedCoupling(
      (s_net): Sequential(
        (0): Linear(in_features=12288, out_features=64, bias=True)
        (1): Tanh()
        (2): Linear(in_features=64, out_features=64, bias=True)
        (3): Tanh()
        (4): Linear(in_features=64, out_features=12288, bias=True)
      )
      (t_net): Sequential(
        (0): Linear(in_features=12288, out_features=64, bias=True)
        (1): ReLU()
        (2): Linear(in_features=64, out_features=64, bias=True)
        (3): ReLU()
        (4): Linear(in_features=64, out_features=12288, bias=True)
      )
    )
    (73): BatchNorm()
    (74): LinearMaskedCoupling(
      (s_net): Sequential(
        (0): Linear(in_features=12288, out_features=64, bias=True)
        (1): Tanh()
        (2): Linear(in_features=64, out_features=64, bias=True)
        (3): Tanh()
        (4): Linear(in_features=64, out_features=12288, bias=True)
      )
      (t_net): Sequential(
        (0): Linear(in_features=12288, out_features=64, bias=True)
        (1): ReLU()
        (2): Linear(in_features=64, out_features=64, bias=True)
        (3): ReLU()
        (4): Linear(in_features=64, out_features=12288, bias=True)
      )
    )
    (75): BatchNorm()
    (76): LinearMaskedCoupling(
      (s_net): Sequential(
        (0): Linear(in_features=12288, out_features=64, bias=True)
        (1): Tanh()
        (2): Linear(in_features=64, out_features=64, bias=True)
        (3): Tanh()
        (4): Linear(in_features=64, out_features=12288, bias=True)
      )
      (t_net): Sequential(
        (0): Linear(in_features=12288, out_features=64, bias=True)
        (1): ReLU()
        (2): Linear(in_features=64, out_features=64, bias=True)
        (3): ReLU()
        (4): Linear(in_features=64, out_features=12288, bias=True)
      )
    )
    (77): BatchNorm()
    (78): LinearMaskedCoupling(
      (s_net): Sequential(
        (0): Linear(in_features=12288, out_features=64, bias=True)
        (1): Tanh()
        (2): Linear(in_features=64, out_features=64, bias=True)
        (3): Tanh()
        (4): Linear(in_features=64, out_features=12288, bias=True)
      )
      (t_net): Sequential(
        (0): Linear(in_features=12288, out_features=64, bias=True)
        (1): ReLU()
        (2): Linear(in_features=64, out_features=64, bias=True)
        (3): ReLU()
        (4): Linear(in_features=64, out_features=12288, bias=True)
      )
    )
    (79): BatchNorm()
    (80): LinearMaskedCoupling(
      (s_net): Sequential(
        (0): Linear(in_features=12288, out_features=64, bias=True)
        (1): Tanh()
        (2): Linear(in_features=64, out_features=64, bias=True)
        (3): Tanh()
        (4): Linear(in_features=64, out_features=12288, bias=True)
      )
      (t_net): Sequential(
        (0): Linear(in_features=12288, out_features=64, bias=True)
        (1): ReLU()
        (2): Linear(in_features=64, out_features=64, bias=True)
        (3): ReLU()
        (4): Linear(in_features=64, out_features=12288, bias=True)
      )
    )
    (81): BatchNorm()
    (82): LinearMaskedCoupling(
      (s_net): Sequential(
        (0): Linear(in_features=12288, out_features=64, bias=True)
        (1): Tanh()
        (2): Linear(in_features=64, out_features=64, bias=True)
        (3): Tanh()
        (4): Linear(in_features=64, out_features=12288, bias=True)
      )
      (t_net): Sequential(
        (0): Linear(in_features=12288, out_features=64, bias=True)
        (1): ReLU()
        (2): Linear(in_features=64, out_features=64, bias=True)
        (3): ReLU()
        (4): Linear(in_features=64, out_features=12288, bias=True)
      )
    )
    (83): BatchNorm()
    (84): LinearMaskedCoupling(
      (s_net): Sequential(
        (0): Linear(in_features=12288, out_features=64, bias=True)
        (1): Tanh()
        (2): Linear(in_features=64, out_features=64, bias=True)
        (3): Tanh()
        (4): Linear(in_features=64, out_features=12288, bias=True)
      )
      (t_net): Sequential(
        (0): Linear(in_features=12288, out_features=64, bias=True)
        (1): ReLU()
        (2): Linear(in_features=64, out_features=64, bias=True)
        (3): ReLU()
        (4): Linear(in_features=64, out_features=12288, bias=True)
      )
    )
    (85): BatchNorm()
    (86): LinearMaskedCoupling(
      (s_net): Sequential(
        (0): Linear(in_features=12288, out_features=64, bias=True)
        (1): Tanh()
        (2): Linear(in_features=64, out_features=64, bias=True)
        (3): Tanh()
        (4): Linear(in_features=64, out_features=12288, bias=True)
      )
      (t_net): Sequential(
        (0): Linear(in_features=12288, out_features=64, bias=True)
        (1): ReLU()
        (2): Linear(in_features=64, out_features=64, bias=True)
        (3): ReLU()
        (4): Linear(in_features=64, out_features=12288, bias=True)
      )
    )
    (87): BatchNorm()
    (88): LinearMaskedCoupling(
      (s_net): Sequential(
        (0): Linear(in_features=12288, out_features=64, bias=True)
        (1): Tanh()
        (2): Linear(in_features=64, out_features=64, bias=True)
        (3): Tanh()
        (4): Linear(in_features=64, out_features=12288, bias=True)
      )
      (t_net): Sequential(
        (0): Linear(in_features=12288, out_features=64, bias=True)
        (1): ReLU()
        (2): Linear(in_features=64, out_features=64, bias=True)
        (3): ReLU()
        (4): Linear(in_features=64, out_features=12288, bias=True)
      )
    )
    (89): BatchNorm()
    (90): LinearMaskedCoupling(
      (s_net): Sequential(
        (0): Linear(in_features=12288, out_features=64, bias=True)
        (1): Tanh()
        (2): Linear(in_features=64, out_features=64, bias=True)
        (3): Tanh()
        (4): Linear(in_features=64, out_features=12288, bias=True)
      )
      (t_net): Sequential(
        (0): Linear(in_features=12288, out_features=64, bias=True)
        (1): ReLU()
        (2): Linear(in_features=64, out_features=64, bias=True)
        (3): ReLU()
        (4): Linear(in_features=64, out_features=12288, bias=True)
      )
    )
    (91): BatchNorm()
    (92): LinearMaskedCoupling(
      (s_net): Sequential(
        (0): Linear(in_features=12288, out_features=64, bias=True)
        (1): Tanh()
        (2): Linear(in_features=64, out_features=64, bias=True)
        (3): Tanh()
        (4): Linear(in_features=64, out_features=12288, bias=True)
      )
      (t_net): Sequential(
        (0): Linear(in_features=12288, out_features=64, bias=True)
        (1): ReLU()
        (2): Linear(in_features=64, out_features=64, bias=True)
        (3): ReLU()
        (4): Linear(in_features=64, out_features=12288, bias=True)
      )
    )
    (93): BatchNorm()
    (94): LinearMaskedCoupling(
      (s_net): Sequential(
        (0): Linear(in_features=12288, out_features=64, bias=True)
        (1): Tanh()
        (2): Linear(in_features=64, out_features=64, bias=True)
        (3): Tanh()
        (4): Linear(in_features=64, out_features=12288, bias=True)
      )
      (t_net): Sequential(
        (0): Linear(in_features=12288, out_features=64, bias=True)
        (1): ReLU()
        (2): Linear(in_features=64, out_features=64, bias=True)
        (3): ReLU()
        (4): Linear(in_features=64, out_features=12288, bias=True)
      )
    )
    (95): BatchNorm()
    (96): LinearMaskedCoupling(
      (s_net): Sequential(
        (0): Linear(in_features=12288, out_features=64, bias=True)
        (1): Tanh()
        (2): Linear(in_features=64, out_features=64, bias=True)
        (3): Tanh()
        (4): Linear(in_features=64, out_features=12288, bias=True)
      )
      (t_net): Sequential(
        (0): Linear(in_features=12288, out_features=64, bias=True)
        (1): ReLU()
        (2): Linear(in_features=64, out_features=64, bias=True)
        (3): ReLU()
        (4): Linear(in_features=64, out_features=12288, bias=True)
      )
    )
    (97): BatchNorm()
    (98): LinearMaskedCoupling(
      (s_net): Sequential(
        (0): Linear(in_features=12288, out_features=64, bias=True)
        (1): Tanh()
        (2): Linear(in_features=64, out_features=64, bias=True)
        (3): Tanh()
        (4): Linear(in_features=64, out_features=12288, bias=True)
      )
      (t_net): Sequential(
        (0): Linear(in_features=12288, out_features=64, bias=True)
        (1): ReLU()
        (2): Linear(in_features=64, out_features=64, bias=True)
        (3): ReLU()
        (4): Linear(in_features=64, out_features=12288, bias=True)
      )
    )
    (99): BatchNorm()
    (100): LinearMaskedCoupling(
      (s_net): Sequential(
        (0): Linear(in_features=12288, out_features=64, bias=True)
        (1): Tanh()
        (2): Linear(in_features=64, out_features=64, bias=True)
        (3): Tanh()
        (4): Linear(in_features=64, out_features=12288, bias=True)
      )
      (t_net): Sequential(
        (0): Linear(in_features=12288, out_features=64, bias=True)
        (1): ReLU()
        (2): Linear(in_features=64, out_features=64, bias=True)
        (3): ReLU()
        (4): Linear(in_features=64, out_features=12288, bias=True)
      )
    )
    (101): BatchNorm()
    (102): LinearMaskedCoupling(
      (s_net): Sequential(
        (0): Linear(in_features=12288, out_features=64, bias=True)
        (1): Tanh()
        (2): Linear(in_features=64, out_features=64, bias=True)
        (3): Tanh()
        (4): Linear(in_features=64, out_features=12288, bias=True)
      )
      (t_net): Sequential(
        (0): Linear(in_features=12288, out_features=64, bias=True)
        (1): ReLU()
        (2): Linear(in_features=64, out_features=64, bias=True)
        (3): ReLU()
        (4): Linear(in_features=64, out_features=12288, bias=True)
      )
    )
    (103): BatchNorm()
    (104): LinearMaskedCoupling(
      (s_net): Sequential(
        (0): Linear(in_features=12288, out_features=64, bias=True)
        (1): Tanh()
        (2): Linear(in_features=64, out_features=64, bias=True)
        (3): Tanh()
        (4): Linear(in_features=64, out_features=12288, bias=True)
      )
      (t_net): Sequential(
        (0): Linear(in_features=12288, out_features=64, bias=True)
        (1): ReLU()
        (2): Linear(in_features=64, out_features=64, bias=True)
        (3): ReLU()
        (4): Linear(in_features=64, out_features=12288, bias=True)
      )
    )
    (105): BatchNorm()
    (106): LinearMaskedCoupling(
      (s_net): Sequential(
        (0): Linear(in_features=12288, out_features=64, bias=True)
        (1): Tanh()
        (2): Linear(in_features=64, out_features=64, bias=True)
        (3): Tanh()
        (4): Linear(in_features=64, out_features=12288, bias=True)
      )
      (t_net): Sequential(
        (0): Linear(in_features=12288, out_features=64, bias=True)
        (1): ReLU()
        (2): Linear(in_features=64, out_features=64, bias=True)
        (3): ReLU()
        (4): Linear(in_features=64, out_features=12288, bias=True)
      )
    )
    (107): BatchNorm()
    (108): LinearMaskedCoupling(
      (s_net): Sequential(
        (0): Linear(in_features=12288, out_features=64, bias=True)
        (1): Tanh()
        (2): Linear(in_features=64, out_features=64, bias=True)
        (3): Tanh()
        (4): Linear(in_features=64, out_features=12288, bias=True)
      )
      (t_net): Sequential(
        (0): Linear(in_features=12288, out_features=64, bias=True)
        (1): ReLU()
        (2): Linear(in_features=64, out_features=64, bias=True)
        (3): ReLU()
        (4): Linear(in_features=64, out_features=12288, bias=True)
      )
    )
    (109): BatchNorm()
    (110): LinearMaskedCoupling(
      (s_net): Sequential(
        (0): Linear(in_features=12288, out_features=64, bias=True)
        (1): Tanh()
        (2): Linear(in_features=64, out_features=64, bias=True)
        (3): Tanh()
        (4): Linear(in_features=64, out_features=12288, bias=True)
      )
      (t_net): Sequential(
        (0): Linear(in_features=12288, out_features=64, bias=True)
        (1): ReLU()
        (2): Linear(in_features=64, out_features=64, bias=True)
        (3): ReLU()
        (4): Linear(in_features=64, out_features=12288, bias=True)
      )
    )
    (111): BatchNorm()
    (112): LinearMaskedCoupling(
      (s_net): Sequential(
        (0): Linear(in_features=12288, out_features=64, bias=True)
        (1): Tanh()
        (2): Linear(in_features=64, out_features=64, bias=True)
        (3): Tanh()
        (4): Linear(in_features=64, out_features=12288, bias=True)
      )
      (t_net): Sequential(
        (0): Linear(in_features=12288, out_features=64, bias=True)
        (1): ReLU()
        (2): Linear(in_features=64, out_features=64, bias=True)
        (3): ReLU()
        (4): Linear(in_features=64, out_features=12288, bias=True)
      )
    )
    (113): BatchNorm()
    (114): LinearMaskedCoupling(
      (s_net): Sequential(
        (0): Linear(in_features=12288, out_features=64, bias=True)
        (1): Tanh()
        (2): Linear(in_features=64, out_features=64, bias=True)
        (3): Tanh()
        (4): Linear(in_features=64, out_features=12288, bias=True)
      )
      (t_net): Sequential(
        (0): Linear(in_features=12288, out_features=64, bias=True)
        (1): ReLU()
        (2): Linear(in_features=64, out_features=64, bias=True)
        (3): ReLU()
        (4): Linear(in_features=64, out_features=12288, bias=True)
      )
    )
    (115): BatchNorm()
    (116): LinearMaskedCoupling(
      (s_net): Sequential(
        (0): Linear(in_features=12288, out_features=64, bias=True)
        (1): Tanh()
        (2): Linear(in_features=64, out_features=64, bias=True)
        (3): Tanh()
        (4): Linear(in_features=64, out_features=12288, bias=True)
      )
      (t_net): Sequential(
        (0): Linear(in_features=12288, out_features=64, bias=True)
        (1): ReLU()
        (2): Linear(in_features=64, out_features=64, bias=True)
        (3): ReLU()
        (4): Linear(in_features=64, out_features=12288, bias=True)
      )
    )
    (117): BatchNorm()
    (118): LinearMaskedCoupling(
      (s_net): Sequential(
        (0): Linear(in_features=12288, out_features=64, bias=True)
        (1): Tanh()
        (2): Linear(in_features=64, out_features=64, bias=True)
        (3): Tanh()
        (4): Linear(in_features=64, out_features=12288, bias=True)
      )
      (t_net): Sequential(
        (0): Linear(in_features=12288, out_features=64, bias=True)
        (1): ReLU()
        (2): Linear(in_features=64, out_features=64, bias=True)
        (3): ReLU()
        (4): Linear(in_features=64, out_features=12288, bias=True)
      )
    )
    (119): BatchNorm()
    (120): LinearMaskedCoupling(
      (s_net): Sequential(
        (0): Linear(in_features=12288, out_features=64, bias=True)
        (1): Tanh()
        (2): Linear(in_features=64, out_features=64, bias=True)
        (3): Tanh()
        (4): Linear(in_features=64, out_features=12288, bias=True)
      )
      (t_net): Sequential(
        (0): Linear(in_features=12288, out_features=64, bias=True)
        (1): ReLU()
        (2): Linear(in_features=64, out_features=64, bias=True)
        (3): ReLU()
        (4): Linear(in_features=64, out_features=12288, bias=True)
      )
    )
    (121): BatchNorm()
    (122): LinearMaskedCoupling(
      (s_net): Sequential(
        (0): Linear(in_features=12288, out_features=64, bias=True)
        (1): Tanh()
        (2): Linear(in_features=64, out_features=64, bias=True)
        (3): Tanh()
        (4): Linear(in_features=64, out_features=12288, bias=True)
      )
      (t_net): Sequential(
        (0): Linear(in_features=12288, out_features=64, bias=True)
        (1): ReLU()
        (2): Linear(in_features=64, out_features=64, bias=True)
        (3): ReLU()
        (4): Linear(in_features=64, out_features=12288, bias=True)
      )
    )
    (123): BatchNorm()
    (124): LinearMaskedCoupling(
      (s_net): Sequential(
        (0): Linear(in_features=12288, out_features=64, bias=True)
        (1): Tanh()
        (2): Linear(in_features=64, out_features=64, bias=True)
        (3): Tanh()
        (4): Linear(in_features=64, out_features=12288, bias=True)
      )
      (t_net): Sequential(
        (0): Linear(in_features=12288, out_features=64, bias=True)
        (1): ReLU()
        (2): Linear(in_features=64, out_features=64, bias=True)
        (3): ReLU()
        (4): Linear(in_features=64, out_features=12288, bias=True)
      )
    )
    (125): BatchNorm()
    (126): LinearMaskedCoupling(
      (s_net): Sequential(
        (0): Linear(in_features=12288, out_features=64, bias=True)
        (1): Tanh()
        (2): Linear(in_features=64, out_features=64, bias=True)
        (3): Tanh()
        (4): Linear(in_features=64, out_features=12288, bias=True)
      )
      (t_net): Sequential(
        (0): Linear(in_features=12288, out_features=64, bias=True)
        (1): ReLU()
        (2): Linear(in_features=64, out_features=64, bias=True)
        (3): ReLU()
        (4): Linear(in_features=64, out_features=12288, bias=True)
      )
    )
    (127): BatchNorm()
    (128): LinearMaskedCoupling(
      (s_net): Sequential(
        (0): Linear(in_features=12288, out_features=64, bias=True)
        (1): Tanh()
        (2): Linear(in_features=64, out_features=64, bias=True)
        (3): Tanh()
        (4): Linear(in_features=64, out_features=12288, bias=True)
      )
      (t_net): Sequential(
        (0): Linear(in_features=12288, out_features=64, bias=True)
        (1): ReLU()
        (2): Linear(in_features=64, out_features=64, bias=True)
        (3): ReLU()
        (4): Linear(in_features=64, out_features=12288, bias=True)
      )
    )
    (129): BatchNorm()
    (130): LinearMaskedCoupling(
      (s_net): Sequential(
        (0): Linear(in_features=12288, out_features=64, bias=True)
        (1): Tanh()
        (2): Linear(in_features=64, out_features=64, bias=True)
        (3): Tanh()
        (4): Linear(in_features=64, out_features=12288, bias=True)
      )
      (t_net): Sequential(
        (0): Linear(in_features=12288, out_features=64, bias=True)
        (1): ReLU()
        (2): Linear(in_features=64, out_features=64, bias=True)
        (3): ReLU()
        (4): Linear(in_features=64, out_features=12288, bias=True)
      )
    )
    (131): BatchNorm()
    (132): LinearMaskedCoupling(
      (s_net): Sequential(
        (0): Linear(in_features=12288, out_features=64, bias=True)
        (1): Tanh()
        (2): Linear(in_features=64, out_features=64, bias=True)
        (3): Tanh()
        (4): Linear(in_features=64, out_features=12288, bias=True)
      )
      (t_net): Sequential(
        (0): Linear(in_features=12288, out_features=64, bias=True)
        (1): ReLU()
        (2): Linear(in_features=64, out_features=64, bias=True)
        (3): ReLU()
        (4): Linear(in_features=64, out_features=12288, bias=True)
      )
    )
    (133): BatchNorm()
    (134): LinearMaskedCoupling(
      (s_net): Sequential(
        (0): Linear(in_features=12288, out_features=64, bias=True)
        (1): Tanh()
        (2): Linear(in_features=64, out_features=64, bias=True)
        (3): Tanh()
        (4): Linear(in_features=64, out_features=12288, bias=True)
      )
      (t_net): Sequential(
        (0): Linear(in_features=12288, out_features=64, bias=True)
        (1): ReLU()
        (2): Linear(in_features=64, out_features=64, bias=True)
        (3): ReLU()
        (4): Linear(in_features=64, out_features=12288, bias=True)
      )
    )
    (135): BatchNorm()
    (136): LinearMaskedCoupling(
      (s_net): Sequential(
        (0): Linear(in_features=12288, out_features=64, bias=True)
        (1): Tanh()
        (2): Linear(in_features=64, out_features=64, bias=True)
        (3): Tanh()
        (4): Linear(in_features=64, out_features=12288, bias=True)
      )
      (t_net): Sequential(
        (0): Linear(in_features=12288, out_features=64, bias=True)
        (1): ReLU()
        (2): Linear(in_features=64, out_features=64, bias=True)
        (3): ReLU()
        (4): Linear(in_features=64, out_features=12288, bias=True)
      )
    )
    (137): BatchNorm()
    (138): LinearMaskedCoupling(
      (s_net): Sequential(
        (0): Linear(in_features=12288, out_features=64, bias=True)
        (1): Tanh()
        (2): Linear(in_features=64, out_features=64, bias=True)
        (3): Tanh()
        (4): Linear(in_features=64, out_features=12288, bias=True)
      )
      (t_net): Sequential(
        (0): Linear(in_features=12288, out_features=64, bias=True)
        (1): ReLU()
        (2): Linear(in_features=64, out_features=64, bias=True)
        (3): ReLU()
        (4): Linear(in_features=64, out_features=12288, bias=True)
      )
    )
    (139): BatchNorm()
    (140): LinearMaskedCoupling(
      (s_net): Sequential(
        (0): Linear(in_features=12288, out_features=64, bias=True)
        (1): Tanh()
        (2): Linear(in_features=64, out_features=64, bias=True)
        (3): Tanh()
        (4): Linear(in_features=64, out_features=12288, bias=True)
      )
      (t_net): Sequential(
        (0): Linear(in_features=12288, out_features=64, bias=True)
        (1): ReLU()
        (2): Linear(in_features=64, out_features=64, bias=True)
        (3): ReLU()
        (4): Linear(in_features=64, out_features=12288, bias=True)
      )
    )
    (141): BatchNorm()
    (142): LinearMaskedCoupling(
      (s_net): Sequential(
        (0): Linear(in_features=12288, out_features=64, bias=True)
        (1): Tanh()
        (2): Linear(in_features=64, out_features=64, bias=True)
        (3): Tanh()
        (4): Linear(in_features=64, out_features=12288, bias=True)
      )
      (t_net): Sequential(
        (0): Linear(in_features=12288, out_features=64, bias=True)
        (1): ReLU()
        (2): Linear(in_features=64, out_features=64, bias=True)
        (3): ReLU()
        (4): Linear(in_features=64, out_features=12288, bias=True)
      )
    )
    (143): BatchNorm()
    (144): LinearMaskedCoupling(
      (s_net): Sequential(
        (0): Linear(in_features=12288, out_features=64, bias=True)
        (1): Tanh()
        (2): Linear(in_features=64, out_features=64, bias=True)
        (3): Tanh()
        (4): Linear(in_features=64, out_features=12288, bias=True)
      )
      (t_net): Sequential(
        (0): Linear(in_features=12288, out_features=64, bias=True)
        (1): ReLU()
        (2): Linear(in_features=64, out_features=64, bias=True)
        (3): ReLU()
        (4): Linear(in_features=64, out_features=12288, bias=True)
      )
    )
    (145): BatchNorm()
    (146): LinearMaskedCoupling(
      (s_net): Sequential(
        (0): Linear(in_features=12288, out_features=64, bias=True)
        (1): Tanh()
        (2): Linear(in_features=64, out_features=64, bias=True)
        (3): Tanh()
        (4): Linear(in_features=64, out_features=12288, bias=True)
      )
      (t_net): Sequential(
        (0): Linear(in_features=12288, out_features=64, bias=True)
        (1): ReLU()
        (2): Linear(in_features=64, out_features=64, bias=True)
        (3): ReLU()
        (4): Linear(in_features=64, out_features=12288, bias=True)
      )
    )
    (147): BatchNorm()
    (148): LinearMaskedCoupling(
      (s_net): Sequential(
        (0): Linear(in_features=12288, out_features=64, bias=True)
        (1): Tanh()
        (2): Linear(in_features=64, out_features=64, bias=True)
        (3): Tanh()
        (4): Linear(in_features=64, out_features=12288, bias=True)
      )
      (t_net): Sequential(
        (0): Linear(in_features=12288, out_features=64, bias=True)
        (1): ReLU()
        (2): Linear(in_features=64, out_features=64, bias=True)
        (3): ReLU()
        (4): Linear(in_features=64, out_features=12288, bias=True)
      )
    )
    (149): BatchNorm()
    (150): LinearMaskedCoupling(
      (s_net): Sequential(
        (0): Linear(in_features=12288, out_features=64, bias=True)
        (1): Tanh()
        (2): Linear(in_features=64, out_features=64, bias=True)
        (3): Tanh()
        (4): Linear(in_features=64, out_features=12288, bias=True)
      )
      (t_net): Sequential(
        (0): Linear(in_features=12288, out_features=64, bias=True)
        (1): ReLU()
        (2): Linear(in_features=64, out_features=64, bias=True)
        (3): ReLU()
        (4): Linear(in_features=64, out_features=12288, bias=True)
      )
    )
    (151): BatchNorm()
    (152): LinearMaskedCoupling(
      (s_net): Sequential(
        (0): Linear(in_features=12288, out_features=64, bias=True)
        (1): Tanh()
        (2): Linear(in_features=64, out_features=64, bias=True)
        (3): Tanh()
        (4): Linear(in_features=64, out_features=12288, bias=True)
      )
      (t_net): Sequential(
        (0): Linear(in_features=12288, out_features=64, bias=True)
        (1): ReLU()
        (2): Linear(in_features=64, out_features=64, bias=True)
        (3): ReLU()
        (4): Linear(in_features=64, out_features=12288, bias=True)
      )
    )
    (153): BatchNorm()
    (154): LinearMaskedCoupling(
      (s_net): Sequential(
        (0): Linear(in_features=12288, out_features=64, bias=True)
        (1): Tanh()
        (2): Linear(in_features=64, out_features=64, bias=True)
        (3): Tanh()
        (4): Linear(in_features=64, out_features=12288, bias=True)
      )
      (t_net): Sequential(
        (0): Linear(in_features=12288, out_features=64, bias=True)
        (1): ReLU()
        (2): Linear(in_features=64, out_features=64, bias=True)
        (3): ReLU()
        (4): Linear(in_features=64, out_features=12288, bias=True)
      )
    )
    (155): BatchNorm()
    (156): LinearMaskedCoupling(
      (s_net): Sequential(
        (0): Linear(in_features=12288, out_features=64, bias=True)
        (1): Tanh()
        (2): Linear(in_features=64, out_features=64, bias=True)
        (3): Tanh()
        (4): Linear(in_features=64, out_features=12288, bias=True)
      )
      (t_net): Sequential(
        (0): Linear(in_features=12288, out_features=64, bias=True)
        (1): ReLU()
        (2): Linear(in_features=64, out_features=64, bias=True)
        (3): ReLU()
        (4): Linear(in_features=64, out_features=12288, bias=True)
      )
    )
    (157): BatchNorm()
    (158): LinearMaskedCoupling(
      (s_net): Sequential(
        (0): Linear(in_features=12288, out_features=64, bias=True)
        (1): Tanh()
        (2): Linear(in_features=64, out_features=64, bias=True)
        (3): Tanh()
        (4): Linear(in_features=64, out_features=12288, bias=True)
      )
      (t_net): Sequential(
        (0): Linear(in_features=12288, out_features=64, bias=True)
        (1): ReLU()
        (2): Linear(in_features=64, out_features=64, bias=True)
        (3): ReLU()
        (4): Linear(in_features=64, out_features=12288, bias=True)
      )
    )
    (159): BatchNorm()
    (160): LinearMaskedCoupling(
      (s_net): Sequential(
        (0): Linear(in_features=12288, out_features=64, bias=True)
        (1): Tanh()
        (2): Linear(in_features=64, out_features=64, bias=True)
        (3): Tanh()
        (4): Linear(in_features=64, out_features=12288, bias=True)
      )
      (t_net): Sequential(
        (0): Linear(in_features=12288, out_features=64, bias=True)
        (1): ReLU()
        (2): Linear(in_features=64, out_features=64, bias=True)
        (3): ReLU()
…
        (2): Linear(in_features=64, out_features=64, bias=True)
        (3): Tanh()
        (4): Linear(in_features=64, out_features=8192, bias=True)
      )
      (t_net): Sequential(
        (0): Linear(in_features=8192, out_features=64, bias=True)
        (1): ReLU()
        (2): Linear(in_features=64, out_features=64, bias=True)
        (3): ReLU()
        (4): Linear(in_features=64, out_features=8192, bias=True)
      )
    )
    (1): BatchNorm()
    (2): LinearMaskedCoupling(
      (s_net): Sequential(
        (0): Linear(in_features=8192, out_features=64, bias=True)
        (1): Tanh()
        (2): Linear(in_features=64, out_features=64, bias=True)
        (3): Tanh()
        (4): Linear(in_features=64, out_features=8192, bias=True)
      )
      (t_net): Sequential(
        (0): Linear(in_features=8192, out_features=64, bias=True)
        (1): ReLU()
        (2): Linear(in_features=64, out_features=64, bias=True)
        (3): ReLU()
        (4): Linear(in_features=64, out_features=8192, bias=True)
      )
    )
    (3): BatchNorm()
    (4): LinearMaskedCoupling(
      (s_net): Sequential(
        (0): Linear(in_features=8192, out_features=64, bias=True)
        (1): Tanh()
        (2): Linear(in_features=64, out_features=64, bias=True)
        (3): Tanh()
        (4): Linear(in_features=64, out_features=8192, bias=True)
      )
      (t_net): Sequential(
        (0): Linear(in_features=8192, out_features=64, bias=True)
        (1): ReLU()
        (2): Linear(in_features=64, out_features=64, bias=True)
        (3): ReLU()
        (4): Linear(in_features=64, out_features=8192, bias=True)
      )
    )
    (5): BatchNorm()
    (6): LinearMaskedCoupling(
      (s_net): Sequential(
        (0): Linear(in_features=8192, out_features=64, bias=True)
        (1): Tanh()
        (2): Linear(in_features=64, out_features=64, bias=True)
        (3): Tanh()
        (4): Linear(in_features=64, out_features=8192, bias=True)
      )
      (t_net): Sequential(
        (0): Linear(in_features=8192, out_features=64, bias=True)
        (1): ReLU()
        (2): Linear(in_features=64, out_features=64, bias=True)
        (3): ReLU()
        (4): Linear(in_features=64, out_features=8192, bias=True)
      )
    )
    (7): BatchNorm()
    (8): LinearMaskedCoupling(
      (s_net): Sequential(
        (0): Linear(in_features=8192, out_features=64, bias=True)
        (1): Tanh()
        (2): Linear(in_features=64, out_features=64, bias=True)
        (3): Tanh()
        (4): Linear(in_features=64, out_features=8192, bias=True)
      )
      (t_net): Sequential(
        (0): Linear(in_features=8192, out_features=64, bias=True)
        (1): ReLU()
        (2): Linear(in_features=64, out_features=64, bias=True)
        (3): ReLU()
        (4): Linear(in_features=64, out_features=8192, bias=True)
      )
    )
    (9): BatchNorm()
    (10): LinearMaskedCoupling(
      (s_net): Sequential(
        (0): Linear(in_features=8192, out_features=64, bias=True)
        (1): Tanh()
        (2): Linear(in_features=64, out_features=64, bias=True)
        (3): Tanh()
        (4): Linear(in_features=64, out_features=8192, bias=True)
      )
      (t_net): Sequential(
        (0): Linear(in_features=8192, out_features=64, bias=True)
        (1): ReLU()
        (2): Linear(in_features=64, out_features=64, bias=True)
        (3): ReLU()
        (4): Linear(in_features=64, out_features=8192, bias=True)
      )
    )
    (11): BatchNorm()
    (12): LinearMaskedCoupling(
      (s_net): Sequential(
        (0): Linear(in_features=8192, out_features=64, bias=True)
        (1): Tanh()
        (2): Linear(in_features=64, out_features=64, bias=True)
        (3): Tanh()
        (4): Linear(in_features=64, out_features=8192, bias=True)
      )
      (t_net): Sequential(
        (0): Linear(in_features=8192, out_features=64, bias=True)
        (1): ReLU()
        (2): Linear(in_features=64, out_features=64, bias=True)
        (3): ReLU()
        (4): Linear(in_features=64, out_features=8192, bias=True)
      )
    )
    (13): BatchNorm()
    (14): LinearMaskedCoupling(
      (s_net): Sequential(
        (0): Linear(in_features=8192, out_features=64, bias=True)
        (1): Tanh()
        (2): Linear(in_features=64, out_features=64, bias=True)
        (3): Tanh()
        (4): Linear(in_features=64, out_features=8192, bias=True)
      )
      (t_net): Sequential(
        (0): Linear(in_features=8192, out_features=64, bias=True)
        (1): ReLU()
        (2): Linear(in_features=64, out_features=64, bias=True)
        (3): ReLU()
        (4): Linear(in_features=64, out_features=8192, bias=True)
      )
    )
    (15): BatchNorm()
    (16): LinearMaskedCoupling(
      (s_net): Sequential(
        (0): Linear(in_features=8192, out_features=64, bias=True)
        (1): Tanh()
        (2): Linear(in_features=64, out_features=64, bias=True)
        (3): Tanh()
        (4): Linear(in_features=64, out_features=8192, bias=True)
      )
      (t_net): Sequential(
        (0): Linear(in_features=8192, out_features=64, bias=True)
        (1): ReLU()
        (2): Linear(in_features=64, out_features=64, bias=True)
        (3): ReLU()
        (4): Linear(in_features=64, out_features=8192, bias=True)
      )
    )
    (17): BatchNorm()
    (18): LinearMaskedCoupling(
      (s_net): Sequential(
        (0): Linear(in_features=8192, out_features=64, bias=True)
        (1): Tanh()
        (2): Linear(in_features=64, out_features=64, bias=True)
        (3): Tanh()
        (4): Linear(in_features=64, out_features=8192, bias=True)
      )
      (t_net): Sequential(
        (0): Linear(in_features=8192, out_features=64, bias=True)
        (1): ReLU()
        (2): Linear(in_features=64, out_features=64, bias=True)
        (3): ReLU()
        (4): Linear(in_features=64, out_features=8192, bias=True)
      )
    )
    (19): BatchNorm()
    (20): LinearMaskedCoupling(
      (s_net): Sequential(
        (0): Linear(in_features=8192, out_features=64, bias=True)
        (1): Tanh()
        (2): Linear(in_features=64, out_features=64, bias=True)
        (3): Tanh()
        (4): Linear(in_features=64, out_features=8192, bias=True)
      )
      (t_net): Sequential(
        (0): Linear(in_features=8192, out_features=64, bias=True)
        (1): ReLU()
        (2): Linear(in_features=64, out_features=64, bias=True)
        (3): ReLU()
        (4): Linear(in_features=64, out_features=8192, bias=True)
      )
    )
    (21): BatchNorm()
    (22): LinearMaskedCoupling(
      (s_net): Sequential(
        (0): Linear(in_features=8192, out_features=64, bias=True)
        (1): Tanh()
        (2): Linear(in_features=64, out_features=64, bias=True)
        (3): Tanh()
        (4): Linear(in_features=64, out_features=8192, bias=True)
      )
      (t_net): Sequential(
        (0): Linear(in_features=8192, out_features=64, bias=True)
        (1): ReLU()
        (2): Linear(in_features=64, out_features=64, bias=True)
        (3): ReLU()
        (4): Linear(in_features=64, out_features=8192, bias=True)
      )
    )
    (23): BatchNorm()
    (24): LinearMaskedCoupling(
      (s_net): Sequential(
        (0): Linear(in_features=8192, out_features=64, bias=True)
        (1): Tanh()
        (2): Linear(in_features=64, out_features=64, bias=True)
        (3): Tanh()
        (4): Linear(in_features=64, out_features=8192, bias=True)
      )
      (t_net): Sequential(
        (0): Linear(in_features=8192, out_features=64, bias=True)
        (1): ReLU()
        (2): Linear(in_features=64, out_features=64, bias=True)
        (3): ReLU()
        (4): Linear(in_features=64, out_features=8192, bias=True)
      )
    )
    (25): BatchNorm()
    (26): LinearMaskedCoupling(
      (s_net): Sequential(
        (0): Linear(in_features=8192, out_features=64, bias=True)
        (1): Tanh()
        (2): Linear(in_features=64, out_features=64, bias=True)
        (3): Tanh()
        (4): Linear(in_features=64, out_features=8192, bias=True)
      )
      (t_net): Sequential(
        (0): Linear(in_features=8192, out_features=64, bias=True)
        (1): ReLU()
        (2): Linear(in_features=64, out_features=64, bias=True)
        (3): ReLU()
        (4): Linear(in_features=64, out_features=8192, bias=True)
      )
    )
    (27): BatchNorm()
    (28): LinearMaskedCoupling(
      (s_net): Sequential(
        (0): Linear(in_features=8192, out_features=64, bias=True)
        (1): Tanh()
        (2): Linear(in_features=64, out_features=64, bias=True)
        (3): Tanh()
        (4): Linear(in_features=64, out_features=8192, bias=True)
      )
      (t_net): Sequential(
        (0): Linear(in_features=8192, out_features=64, bias=True)
        (1): ReLU()
        (2): Linear(in_features=64, out_features=64, bias=True)
        (3): ReLU()
        (4): Linear(in_features=64, out_features=8192, bias=True)
      )
    )
    (29): BatchNorm()
    (30): LinearMaskedCoupling(
      (s_net): Sequential(
        (0): Linear(in_features=8192, out_features=64, bias=True)
        (1): Tanh()
        (2): Linear(in_features=64, out_features=64, bias=True)
        (3): Tanh()
        (4): Linear(in_features=64, out_features=8192, bias=True)
      )
      (t_net): Sequential(
        (0): Linear(in_features=8192, out_features=64, bias=True)
        (1): ReLU()
        (2): Linear(in_features=64, out_features=64, bias=True)
        (3): ReLU()
        (4): Linear(in_features=64, out_features=8192, bias=True)
      )
    )
    (31): BatchNorm()
    (32): LinearMaskedCoupling(
      (s_net): Sequential(
        (0): Linear(in_features=8192, out_features=64, bias=True)
        (1): Tanh()
        (2): Linear(in_features=64, out_features=64, bias=True)
        (3): Tanh()
        (4): Linear(in_features=64, out_features=8192, bias=True)
      )
      (t_net): Sequential(
        (0): Linear(in_features=8192, out_features=64, bias=True)
        (1): ReLU()
        (2): Linear(in_features=64, out_features=64, bias=True)
        (3): ReLU()
        (4): Linear(in_features=64, out_features=8192, bias=True)
      )
    )
    (33): BatchNorm()
    (34): LinearMaskedCoupling(
      (s_net): Sequential(
        (0): Linear(in_features=8192, out_features=64, bias=True)
        (1): Tanh()
        (2): Linear(in_features=64, out_features=64, bias=True)
        (3): Tanh()
        (4): Linear(in_features=64, out_features=8192, bias=True)
      )
      (t_net): Sequential(
        (0): Linear(in_features=8192, out_features=64, bias=True)
        (1): ReLU()
        (2): Linear(in_features=64, out_features=64, bias=True)
        (3): ReLU()
        (4): Linear(in_features=64, out_features=8192, bias=True)
      )
    )
    (35): BatchNorm()
    (36): LinearMaskedCoupling(
      (s_net): Sequential(
        (0): Linear(in_features=8192, out_features=64, bias=True)
        (1): Tanh()
        (2): Linear(in_features=64, out_features=64, bias=True)
        (3): Tanh()
        (4): Linear(in_features=64, out_features=8192, bias=True)
      )
      (t_net): Sequential(
        (0): Linear(in_features=8192, out_features=64, bias=True)
        (1): ReLU()
        (2): Linear(in_features=64, out_features=64, bias=True)
        (3): ReLU()
        (4): Linear(in_features=64, out_features=8192, bias=True)
      )
    )
    (37): BatchNorm()
    (38): LinearMaskedCoupling(
      (s_net): Sequential(
        (0): Linear(in_features=8192, out_features=64, bias=True)
        (1): Tanh()
        (2): Linear(in_features=64, out_features=64, bias=True)
        (3): Tanh()
        (4): Linear(in_features=64, out_features=8192, bias=True)
      )
      (t_net): Sequential(
        (0): Linear(in_features=8192, out_features=64, bias=True)
        (1): ReLU()
        (2): Linear(in_features=64, out_features=64, bias=True)
        (3): ReLU()
        (4): Linear(in_features=64, out_features=8192, bias=True)
      )
    )
    (39): BatchNorm()
    (40): LinearMaskedCoupling(
      (s_net): Sequential(
        (0): Linear(in_features=8192, out_features=64, bias=True)
        (1): Tanh()
        (2): Linear(in_features=64, out_features=64, bias=True)
        (3): Tanh()
        (4): Linear(in_features=64, out_features=8192, bias=True)
      )
      (t_net): Sequential(
        (0): Linear(in_features=8192, out_features=64, bias=True)
        (1): ReLU()
        (2): Linear(in_features=64, out_features=64, bias=True)
        (3): ReLU()
        (4): Linear(in_features=64, out_features=8192, bias=True)
      )
    )
    (41): BatchNorm()
    (42): LinearMaskedCoupling(
      (s_net): Sequential(
        (0): Linear(in_features=8192, out_features=64, bias=True)
        (1): Tanh()
        (2): Linear(in_features=64, out_features=64, bias=True)
        (3): Tanh()
        (4): Linear(in_features=64, out_features=8192, bias=True)
      )
      (t_net): Sequential(
        (0): Linear(in_features=8192, out_features=64, bias=True)
        (1): ReLU()
        (2): Linear(in_features=64, out_features=64, bias=True)
        (3): ReLU()
        (4): Linear(in_features=64, out_features=8192, bias=True)
      )
    )
    (43): BatchNorm()
    (44): LinearMaskedCoupling(
      (s_net): Sequential(
        (0): Linear(in_features=8192, out_features=64, bias=True)
        (1): Tanh()
        (2): Linear(in_features=64, out_features=64, bias=True)
        (3): Tanh()
        (4): Linear(in_features=64, out_features=8192, bias=True)
      )
      (t_net): Sequential(
        (0): Linear(in_features=8192, out_features=64, bias=True)
        (1): ReLU()
        (2): Linear(in_features=64, out_features=64, bias=True)
        (3): ReLU()
        (4): Linear(in_features=64, out_features=8192, bias=True)
      )
    )
    (45): BatchNorm()
    (46): LinearMaskedCoupling(
      (s_net): Sequential(
        (0): Linear(in_features=8192, out_features=64, bias=True)
        (1): Tanh()
        (2): Linear(in_features=64, out_features=64, bias=True)
        (3): Tanh()
        (4): Linear(in_features=64, out_features=8192, bias=True)
      )
      (t_net): Sequential(
        (0): Linear(in_features=8192, out_features=64, bias=True)
        (1): ReLU()
        (2): Linear(in_features=64, out_features=64, bias=True)
        (3): ReLU()
        (4): Linear(in_features=64, out_features=8192, bias=True)
      )
    )
    (47): BatchNorm()
    (48): LinearMaskedCoupling(
      (s_net): Sequential(
        (0): Linear(in_features=8192, out_features=64, bias=True)
        (1): Tanh()
        (2): Linear(in_features=64, out_features=64, bias=True)
        (3): Tanh()
        (4): Linear(in_features=64, out_features=8192, bias=True)
      )
      (t_net): Sequential(
        (0): Linear(in_features=8192, out_features=64, bias=True)
        (1): ReLU()
        (2): Linear(in_features=64, out_features=64, bias=True)
        (3): ReLU()
        (4): Linear(in_features=64, out_features=8192, bias=True)
      )
    )
    (49): BatchNorm()
    (50): LinearMaskedCoupling(
      (s_net): Sequential(
        (0): Linear(in_features=8192, out_features=64, bias=True)
        (1): Tanh()
        (2): Linear(in_features=64, out_features=64, bias=True)
        (3): Tanh()
        (4): Linear(in_features=64, out_features=8192, bias=True)
      )
      (t_net): Sequential(
        (0): Linear(in_features=8192, out_features=64, bias=True)
        (1): ReLU()
        (2): Linear(in_features=64, out_features=64, bias=True)
        (3): ReLU()
        (4): Linear(in_features=64, out_features=8192, bias=True)
      )
    )
    (51): BatchNorm()
    (52): LinearMaskedCoupling(
      (s_net): Sequential(
        (0): Linear(in_features=8192, out_features=64, bias=True)
        (1): Tanh()
        (2): Linear(in_features=64, out_features=64, bias=True)
        (3): Tanh()
        (4): Linear(in_features=64, out_features=8192, bias=True)
      )
      (t_net): Sequential(
        (0): Linear(in_features=8192, out_features=64, bias=True)
        (1): ReLU()
        (2): Linear(in_features=64, out_features=64, bias=True)
        (3): ReLU()
        (4): Linear(in_features=64, out_features=8192, bias=True)
      )
    )
    (53): BatchNorm()
    (54): LinearMaskedCoupling(
      (s_net): Sequential(
        (0): Linear(in_features=8192, out_features=64, bias=True)
        (1): Tanh()
        (2): Linear(in_features=64, out_features=64, bias=True)
        (3): Tanh()
        (4): Linear(in_features=64, out_features=8192, bias=True)
      )
      (t_net): Sequential(
        (0): Linear(in_features=8192, out_features=64, bias=True)
        (1): ReLU()
        (2): Linear(in_features=64, out_features=64, bias=True)
        (3): ReLU()
        (4): Linear(in_features=64, out_features=8192, bias=True)
      )
    )
    (55): BatchNorm()
    (56): LinearMaskedCoupling(
      (s_net): Sequential(
        (0): Linear(in_features=8192, out_features=64, bias=True)
        (1): Tanh()
        (2): Linear(in_features=64, out_features=64, bias=True)
        (3): Tanh()
        (4): Linear(in_features=64, out_features=8192, bias=True)
      )
      (t_net): Sequential(
        (0): Linear(in_features=8192, out_features=64, bias=True)
        (1): ReLU()
        (2): Linear(in_features=64, out_features=64, bias=True)
        (3): ReLU()
        (4): Linear(in_features=64, out_features=8192, bias=True)
      )
    )
    (57): BatchNorm()
    (58): LinearMaskedCoupling(
      (s_net): Sequential(
        (0): Linear(in_features=8192, out_features=64, bias=True)
        (1): Tanh()
        (2): Linear(in_features=64, out_features=64, bias=True)
        (3): Tanh()
        (4): Linear(in_features=64, out_features=8192, bias=True)
      )
      (t_net): Sequential(
        (0): Linear(in_features=8192, out_features=64, bias=True)
        (1): ReLU()
        (2): Linear(in_features=64, out_features=64, bias=True)
        (3): ReLU()
        (4): Linear(in_features=64, out_features=8192, bias=True)
      )
    )
    (59): BatchNorm()
    (60): LinearMaskedCoupling(
      (s_net): Sequential(
        (0): Linear(in_features=8192, out_features=64, bias=True)
        (1): Tanh()
        (2): Linear(in_features=64, out_features=64, bias=True)
        (3): Tanh()
        (4): Linear(in_features=64, out_features=8192, bias=True)
      )
      (t_net): Sequential(
        (0): Linear(in_features=8192, out_features=64, bias=True)
        (1): ReLU()
        (2): Linear(in_features=64, out_features=64, bias=True)
        (3): ReLU()
        (4): Linear(in_features=64, out_features=8192, bias=True)
      )
    )
    (61): BatchNorm()
    (62): LinearMaskedCoupling(
      (s_net): Sequential(
        (0): Linear(in_features=8192, out_features=64, bias=True)
        (1): Tanh()
        (2): Linear(in_features=64, out_features=64, bias=True)
        (3): Tanh()
        (4): Linear(in_features=64, out_features=8192, bias=True)
      )
      (t_net): Sequential(
        (0): Linear(in_features=8192, out_features=64, bias=True)
        (1): ReLU()
        (2): Linear(in_features=64, out_features=64, bias=True)
        (3): ReLU()
        (4): Linear(in_features=64, out_features=8192, bias=True)
      )
    )
    (63): BatchNorm()
  )
)
{'activation_fn': 'relu',
 'batch_size': 4,
 'channel': -1,
 'cond_label_size': None,
 'conditional': False,
 'data_dir': './data/',
 'dataset': 'cityscapes',
 'device': device(type='cuda', index=0),
 'flip_toy_var_order': False,
 'generate': False,
 'hidden_size': 64,
 'input_dims': torch.Size([3, 128, 64]),
 'input_order': 'sequential',
…
 'flip_toy_var_order': False,
 'generate': False,
 'hidden_size': 64,
 'input_dims': torch.Size([3, 128, 64]),
 'input_order': 'sequential',
 'input_size': 24576,
 'log_interval': 1000,
 'lr': 0.0001,
 'model': 'realnvp',
 'n_blocks': 32,
 'n_components': 1,
 'n_epochs': 50,
 'n_hidden': 1,
 'no_batch_norm': False,
 'no_cuda': False,
 'output_dir': './results/mafencoderFalse_channel-1_nblocks32/',
 'restore_file': None,
 'results_file': 'results.txt',
 'seed': 1,
 'start_epoch': 0,
 'train': True,
 'use_encoder': False}
RealNVP(
  (net): FlowSequential(
    (0): LinearMaskedCoupling(
      (s_net): Sequential(
        (0): Linear(in_features=24576, out_features=64, bias=True)
        (1): Tanh()
        (2): Linear(in_features=64, out_features=64, bias=True)
        (3): Tanh()
        (4): Linear(in_features=64, out_features=24576, bias=True)
      )
      (t_net): Sequential(
        (0): Linear(in_features=24576, out_features=64, bias=True)
        (1): ReLU()
        (2): Linear(in_features=64, out_features=64, bias=True)
        (3): ReLU()
        (4): Linear(in_features=64, out_features=24576, bias=True)
      )
    )
    (1): BatchNorm()
    (2): LinearMaskedCoupling(
      (s_net): Sequential(
        (0): Linear(in_features=24576, out_features=64, bias=True)
        (1): Tanh()
        (2): Linear(in_features=64, out_features=64, bias=True)
        (3): Tanh()
        (4): Linear(in_features=64, out_features=24576, bias=True)
      )
      (t_net): Sequential(
        (0): Linear(in_features=24576, out_features=64, bias=True)
        (1): ReLU()
        (2): Linear(in_features=64, out_features=64, bias=True)
        (3): ReLU()
        (4): Linear(in_features=64, out_features=24576, bias=True)
      )
    )
    (3): BatchNorm()
    (4): LinearMaskedCoupling(
      (s_net): Sequential(
        (0): Linear(in_features=24576, out_features=64, bias=True)
        (1): Tanh()
        (2): Linear(in_features=64, out_features=64, bias=True)
        (3): Tanh()
        (4): Linear(in_features=64, out_features=24576, bias=True)
      )
      (t_net): Sequential(
        (0): Linear(in_features=24576, out_features=64, bias=True)
        (1): ReLU()
        (2): Linear(in_features=64, out_features=64, bias=True)
        (3): ReLU()
        (4): Linear(in_features=64, out_features=24576, bias=True)
      )
    )
    (5): BatchNorm()
    (6): LinearMaskedCoupling(
      (s_net): Sequential(
        (0): Linear(in_features=24576, out_features=64, bias=True)
        (1): Tanh()
        (2): Linear(in_features=64, out_features=64, bias=True)
        (3): Tanh()
        (4): Linear(in_features=64, out_features=24576, bias=True)
      )
      (t_net): Sequential(
        (0): Linear(in_features=24576, out_features=64, bias=True)
        (1): ReLU()
        (2): Linear(in_features=64, out_features=64, bias=True)
        (3): ReLU()
        (4): Linear(in_features=64, out_features=24576, bias=True)
      )
    )
    (7): BatchNorm()
    (8): LinearMaskedCoupling(
      (s_net): Sequential(
        (0): Linear(in_features=24576, out_features=64, bias=True)
        (1): Tanh()
        (2): Linear(in_features=64, out_features=64, bias=True)
        (3): Tanh()
        (4): Linear(in_features=64, out_features=24576, bias=True)
      )
      (t_net): Sequential(
        (0): Linear(in_features=24576, out_features=64, bias=True)
        (1): ReLU()
        (2): Linear(in_features=64, out_features=64, bias=True)
        (3): ReLU()
        (4): Linear(in_features=64, out_features=24576, bias=True)
      )
    )
    (9): BatchNorm()
    (10): LinearMaskedCoupling(
      (s_net): Sequential(
        (0): Linear(in_features=24576, out_features=64, bias=True)
        (1): Tanh()
        (2): Linear(in_features=64, out_features=64, bias=True)
        (3): Tanh()
        (4): Linear(in_features=64, out_features=24576, bias=True)
      )
      (t_net): Sequential(
        (0): Linear(in_features=24576, out_features=64, bias=True)
        (1): ReLU()
        (2): Linear(in_features=64, out_features=64, bias=True)
        (3): ReLU()
        (4): Linear(in_features=64, out_features=24576, bias=True)
      )
    )
    (11): BatchNorm()
    (12): LinearMaskedCoupling(
      (s_net): Sequential(
        (0): Linear(in_features=24576, out_features=64, bias=True)
        (1): Tanh()
        (2): Linear(in_features=64, out_features=64, bias=True)
        (3): Tanh()
        (4): Linear(in_features=64, out_features=24576, bias=True)
      )
      (t_net): Sequential(
        (0): Linear(in_features=24576, out_features=64, bias=True)
        (1): ReLU()
        (2): Linear(in_features=64, out_features=64, bias=True)
        (3): ReLU()
        (4): Linear(in_features=64, out_features=24576, bias=True)
      )
    )
    (13): BatchNorm()
    (14): LinearMaskedCoupling(
      (s_net): Sequential(
        (0): Linear(in_features=24576, out_features=64, bias=True)
        (1): Tanh()
        (2): Linear(in_features=64, out_features=64, bias=True)
        (3): Tanh()
        (4): Linear(in_features=64, out_features=24576, bias=True)
      )
      (t_net): Sequential(
        (0): Linear(in_features=24576, out_features=64, bias=True)
        (1): ReLU()
        (2): Linear(in_features=64, out_features=64, bias=True)
        (3): ReLU()
        (4): Linear(in_features=64, out_features=24576, bias=True)
      )
    )
    (15): BatchNorm()
    (16): LinearMaskedCoupling(
      (s_net): Sequential(
        (0): Linear(in_features=24576, out_features=64, bias=True)
        (1): Tanh()
        (2): Linear(in_features=64, out_features=64, bias=True)
        (3): Tanh()
        (4): Linear(in_features=64, out_features=24576, bias=True)
      )
      (t_net): Sequential(
        (0): Linear(in_features=24576, out_features=64, bias=True)
        (1): ReLU()
        (2): Linear(in_features=64, out_features=64, bias=True)
        (3): ReLU()
        (4): Linear(in_features=64, out_features=24576, bias=True)
      )
    )
    (17): BatchNorm()
    (18): LinearMaskedCoupling(
      (s_net): Sequential(
        (0): Linear(in_features=24576, out_features=64, bias=True)
        (1): Tanh()
        (2): Linear(in_features=64, out_features=64, bias=True)
        (3): Tanh()
        (4): Linear(in_features=64, out_features=24576, bias=True)
      )
      (t_net): Sequential(
        (0): Linear(in_features=24576, out_features=64, bias=True)
        (1): ReLU()
        (2): Linear(in_features=64, out_features=64, bias=True)
        (3): ReLU()
        (4): Linear(in_features=64, out_features=24576, bias=True)
      )
    )
    (19): BatchNorm()
    (20): LinearMaskedCoupling(
      (s_net): Sequential(
        (0): Linear(in_features=24576, out_features=64, bias=True)
        (1): Tanh()
        (2): Linear(in_features=64, out_features=64, bias=True)
        (3): Tanh()
        (4): Linear(in_features=64, out_features=24576, bias=True)
      )
      (t_net): Sequential(
        (0): Linear(in_features=24576, out_features=64, bias=True)
        (1): ReLU()
        (2): Linear(in_features=64, out_features=64, bias=True)
        (3): ReLU()
        (4): Linear(in_features=64, out_features=24576, bias=True)
      )
    )
    (21): BatchNorm()
    (22): LinearMaskedCoupling(
      (s_net): Sequential(
        (0): Linear(in_features=24576, out_features=64, bias=True)
        (1): Tanh()
        (2): Linear(in_features=64, out_features=64, bias=True)
        (3): Tanh()
        (4): Linear(in_features=64, out_features=24576, bias=True)
      )
      (t_net): Sequential(
        (0): Linear(in_features=24576, out_features=64, bias=True)
        (1): ReLU()
        (2): Linear(in_features=64, out_features=64, bias=True)
        (3): ReLU()
        (4): Linear(in_features=64, out_features=24576, bias=True)
      )
    )
    (23): BatchNorm()
    (24): LinearMaskedCoupling(
      (s_net): Sequential(
        (0): Linear(in_features=24576, out_features=64, bias=True)
        (1): Tanh()
        (2): Linear(in_features=64, out_features=64, bias=True)
        (3): Tanh()
        (4): Linear(in_features=64, out_features=24576, bias=True)
      )
      (t_net): Sequential(
        (0): Linear(in_features=24576, out_features=64, bias=True)
        (1): ReLU()
        (2): Linear(in_features=64, out_features=64, bias=True)
        (3): ReLU()
        (4): Linear(in_features=64, out_features=24576, bias=True)
      )
    )
    (25): BatchNorm()
    (26): LinearMaskedCoupling(
      (s_net): Sequential(
        (0): Linear(in_features=24576, out_features=64, bias=True)
        (1): Tanh()
        (2): Linear(in_features=64, out_features=64, bias=True)
        (3): Tanh()
        (4): Linear(in_features=64, out_features=24576, bias=True)
      )
      (t_net): Sequential(
        (0): Linear(in_features=24576, out_features=64, bias=True)
        (1): ReLU()
        (2): Linear(in_features=64, out_features=64, bias=True)
        (3): ReLU()
        (4): Linear(in_features=64, out_features=24576, bias=True)
      )
    )
    (27): BatchNorm()
    (28): LinearMaskedCoupling(
      (s_net): Sequential(
        (0): Linear(in_features=24576, out_features=64, bias=True)
        (1): Tanh()
        (2): Linear(in_features=64, out_features=64, bias=True)
        (3): Tanh()
        (4): Linear(in_features=64, out_features=24576, bias=True)
      )
      (t_net): Sequential(
        (0): Linear(in_features=24576, out_features=64, bias=True)
        (1): ReLU()
        (2): Linear(in_features=64, out_features=64, bias=True)
        (3): ReLU()
        (4): Linear(in_features=64, out_features=24576, bias=True)
      )
    )
    (29): BatchNorm()
    (30): LinearMaskedCoupling(
      (s_net): Sequential(
        (0): Linear(in_features=24576, out_features=64, bias=True)
        (1): Tanh()
        (2): Linear(in_features=64, out_features=64, bias=True)
        (3): Tanh()
        (4): Linear(in_features=64, out_features=24576, bias=True)
      )
      (t_net): Sequential(
        (0): Linear(in_features=24576, out_features=64, bias=True)
        (1): ReLU()
        (2): Linear(in_features=64, out_features=64, bias=True)
        (3): ReLU()
        (4): Linear(in_features=64, out_features=24576, bias=True)
      )
    )
    (31): BatchNorm()
    (32): LinearMaskedCoupling(
      (s_net): Sequential(
        (0): Linear(in_features=24576, out_features=64, bias=True)
        (1): Tanh()
        (2): Linear(in_features=64, out_features=64, bias=True)
        (3): Tanh()
        (4): Linear(in_features=64, out_features=24576, bias=True)
      )
      (t_net): Sequential(
        (0): Linear(in_features=24576, out_features=64, bias=True)
        (1): ReLU()
        (2): Linear(in_features=64, out_features=64, bias=True)
        (3): ReLU()
        (4): Linear(in_features=64, out_features=24576, bias=True)
      )
    )
    (33): BatchNorm()
    (34): LinearMaskedCoupling(
      (s_net): Sequential(
        (0): Linear(in_features=24576, out_features=64, bias=True)
        (1): Tanh()
        (2): Linear(in_features=64, out_features=64, bias=True)
        (3): Tanh()
        (4): Linear(in_features=64, out_features=24576, bias=True)
      )
      (t_net): Sequential(
        (0): Linear(in_features=24576, out_features=64, bias=True)
        (1): ReLU()
        (2): Linear(in_features=64, out_features=64, bias=True)
        (3): ReLU()
        (4): Linear(in_features=64, out_features=24576, bias=True)
      )
    )
    (35): BatchNorm()
    (36): LinearMaskedCoupling(
      (s_net): Sequential(
        (0): Linear(in_features=24576, out_features=64, bias=True)
        (1): Tanh()
        (2): Linear(in_features=64, out_features=64, bias=True)
        (3): Tanh()
        (4): Linear(in_features=64, out_features=24576, bias=True)
      )
      (t_net): Sequential(
        (0): Linear(in_features=24576, out_features=64, bias=True)
        (1): ReLU()
        (2): Linear(in_features=64, out_features=64, bias=True)
        (3): ReLU()
        (4): Linear(in_features=64, out_features=24576, bias=True)
      )
    )
    (37): BatchNorm()
    (38): LinearMaskedCoupling(
      (s_net): Sequential(
        (0): Linear(in_features=24576, out_features=64, bias=True)
        (1): Tanh()
        (2): Linear(in_features=64, out_features=64, bias=True)
        (3): Tanh()
        (4): Linear(in_features=64, out_features=24576, bias=True)
      )
      (t_net): Sequential(
        (0): Linear(in_features=24576, out_features=64, bias=True)
        (1): ReLU()
        (2): Linear(in_features=64, out_features=64, bias=True)
        (3): ReLU()
        (4): Linear(in_features=64, out_features=24576, bias=True)
      )
    )
    (39): BatchNorm()
    (40): LinearMaskedCoupling(
      (s_net): Sequential(
        (0): Linear(in_features=24576, out_features=64, bias=True)
        (1): Tanh()
        (2): Linear(in_features=64, out_features=64, bias=True)
        (3): Tanh()
        (4): Linear(in_features=64, out_features=24576, bias=True)
      )
      (t_net): Sequential(
        (0): Linear(in_features=24576, out_features=64, bias=True)
        (1): ReLU()
        (2): Linear(in_features=64, out_features=64, bias=True)
        (3): ReLU()
        (4): Linear(in_features=64, out_features=24576, bias=True)
      )
    )
    (41): BatchNorm()
    (42): LinearMaskedCoupling(
      (s_net): Sequential(
        (0): Linear(in_features=24576, out_features=64, bias=True)
        (1): Tanh()
        (2): Linear(in_features=64, out_features=64, bias=True)
        (3): Tanh()
        (4): Linear(in_features=64, out_features=24576, bias=True)
      )
      (t_net): Sequential(
        (0): Linear(in_features=24576, out_features=64, bias=True)
        (1): ReLU()
        (2): Linear(in_features=64, out_features=64, bias=True)
        (3): ReLU()
        (4): Linear(in_features=64, out_features=24576, bias=True)
      )
    )
    (43): BatchNorm()
    (44): LinearMaskedCoupling(
      (s_net): Sequential(
        (0): Linear(in_features=24576, out_features=64, bias=True)
        (1): Tanh()
        (2): Linear(in_features=64, out_features=64, bias=True)
        (3): Tanh()
        (4): Linear(in_features=64, out_features=24576, bias=True)
      )
      (t_net): Sequential(
        (0): Linear(in_features=24576, out_features=64, bias=True)
        (1): ReLU()
        (2): Linear(in_features=64, out_features=64, bias=True)
        (3): ReLU()
        (4): Linear(in_features=64, out_features=24576, bias=True)
      )
    )
    (45): BatchNorm()
    (46): LinearMaskedCoupling(
      (s_net): Sequential(
        (0): Linear(in_features=24576, out_features=64, bias=True)
        (1): Tanh()
        (2): Linear(in_features=64, out_features=64, bias=True)
        (3): Tanh()
        (4): Linear(in_features=64, out_features=24576, bias=True)
      )
      (t_net): Sequential(
        (0): Linear(in_features=24576, out_features=64, bias=True)
        (1): ReLU()
        (2): Linear(in_features=64, out_features=64, bias=True)
        (3): ReLU()
        (4): Linear(in_features=64, out_features=24576, bias=True)
      )
    )
    (47): BatchNorm()
    (48): LinearMaskedCoupling(
      (s_net): Sequential(
        (0): Linear(in_features=24576, out_features=64, bias=True)
        (1): Tanh()
        (2): Linear(in_features=64, out_features=64, bias=True)
        (3): Tanh()
        (4): Linear(in_features=64, out_features=24576, bias=True)
      )
      (t_net): Sequential(
        (0): Linear(in_features=24576, out_features=64, bias=True)
        (1): ReLU()
        (2): Linear(in_features=64, out_features=64, bias=True)
        (3): ReLU()
        (4): Linear(in_features=64, out_features=24576, bias=True)
      )
    )
    (49): BatchNorm()
    (50): LinearMaskedCoupling(
      (s_net): Sequential(
        (0): Linear(in_features=24576, out_features=64, bias=True)
        (1): Tanh()
        (2): Linear(in_features=64, out_features=64, bias=True)
        (3): Tanh()
        (4): Linear(in_features=64, out_features=24576, bias=True)
      )
      (t_net): Sequential(
        (0): Linear(in_features=24576, out_features=64, bias=True)
        (1): ReLU()
        (2): Linear(in_features=64, out_features=64, bias=True)
        (3): ReLU()
        (4): Linear(in_features=64, out_features=24576, bias=True)
      )
    )
    (51): BatchNorm()
    (52): LinearMaskedCoupling(
      (s_net): Sequential(
        (0): Linear(in_features=24576, out_features=64, bias=True)
        (1): Tanh()
        (2): Linear(in_features=64, out_features=64, bias=True)
        (3): Tanh()
        (4): Linear(in_features=64, out_features=24576, bias=True)
      )
      (t_net): Sequential(
        (0): Linear(in_features=24576, out_features=64, bias=True)
        (1): ReLU()
        (2): Linear(in_features=64, out_features=64, bias=True)
        (3): ReLU()
        (4): Linear(in_features=64, out_features=24576, bias=True)
      )
    )
    (53): BatchNorm()
    (54): LinearMaskedCoupling(
      (s_net): Sequential(
        (0): Linear(in_features=24576, out_features=64, bias=True)
        (1): Tanh()
        (2): Linear(in_features=64, out_features=64, bias=True)
        (3): Tanh()
        (4): Linear(in_features=64, out_features=24576, bias=True)
      )
      (t_net): Sequential(
        (0): Linear(in_features=24576, out_features=64, bias=True)
        (1): ReLU()
        (2): Linear(in_features=64, out_features=64, bias=True)
        (3): ReLU()
        (4): Linear(in_features=64, out_features=24576, bias=True)
      )
    )
    (55): BatchNorm()
    (56): LinearMaskedCoupling(
      (s_net): Sequential(
        (0): Linear(in_features=24576, out_features=64, bias=True)
        (1): Tanh()
        (2): Linear(in_features=64, out_features=64, bias=True)
        (3): Tanh()
        (4): Linear(in_features=64, out_features=24576, bias=True)
      )
      (t_net): Sequential(
        (0): Linear(in_features=24576, out_features=64, bias=True)
        (1): ReLU()
        (2): Linear(in_features=64, out_features=64, bias=True)
        (3): ReLU()
        (4): Linear(in_features=64, out_features=24576, bias=True)
      )
    )
    (57): BatchNorm()
    (58): LinearMaskedCoupling(
      (s_net): Sequential(
        (0): Linear(in_features=24576, out_features=64, bias=True)
        (1): Tanh()
        (2): Linear(in_features=64, out_features=64, bias=True)
        (3): Tanh()
        (4): Linear(in_features=64, out_features=24576, bias=True)
      )
      (t_net): Sequential(
        (0): Linear(in_features=24576, out_features=64, bias=True)
        (1): ReLU()
        (2): Linear(in_features=64, out_features=64, bias=True)
        (3): ReLU()
        (4): Linear(in_features=64, out_features=24576, bias=True)
      )
    )
    (59): BatchNorm()
    (60): LinearMaskedCoupling(
      (s_net): Sequential(
        (0): Linear(in_features=24576, out_features=64, bias=True)
        (1): Tanh()
        (2): Linear(in_features=64, out_features=64, bias=True)
        (3): Tanh()
        (4): Linear(in_features=64, out_features=24576, bias=True)
      )
      (t_net): Sequential(
        (0): Linear(in_features=24576, out_features=64, bias=True)
        (1): ReLU()
        (2): Linear(in_features=64, out_features=64, bias=True)
        (3): ReLU()
        (4): Linear(in_features=64, out_features=24576, bias=True)
      )
    )
    (61): BatchNorm()
    (62): LinearMaskedCoupling(
      (s_net): Sequential(
        (0): Linear(in_features=24576, out_features=64, bias=True)
        (1): Tanh()
        (2): Linear(in_features=64, out_features=64, bias=True)
        (3): Tanh()
        (4): Linear(in_features=64, out_features=24576, bias=True)
      )
      (t_net): Sequential(
        (0): Linear(in_features=24576, out_features=64, bias=True)
        (1): ReLU()
        (2): Linear(in_features=64, out_features=64, bias=True)
        (3): ReLU()
        (4): Linear(in_features=64, out_features=24576, bias=True)
      )
    )
    (63): BatchNorm()
  )
)
{'activation_fn': 'relu',
 'batch_size': 4,
 'channel': -1,
 'cond_label_size': None,
 'conditional': False,
 'data_dir': './data/',
 'dataset': 'cityscapes',
 'device': device(type='cuda', index=0),
 'flip_toy_var_order': False,
 'generate': False,
 'hidden_size': 64,
 'input_dims': torch.Size([3, 128, 64]),
 'input_order': 'sequential',
…
 'flip_toy_var_order': False,
 'generate': False,
 'hidden_size': 64,
 'input_dims': torch.Size([3, 128, 64]),
 'input_order': 'sequential',
 'input_size': 24576,
 'log_interval': 1000,
 'lr': 0.0001,
 'model': 'realnvp',
 'n_blocks': 16,
 'n_components': 1,
 'n_epochs': 50,
 'n_hidden': 1,
 'no_batch_norm': False,
 'no_cuda': False,
 'output_dir': './results/mafencoderFalse_channel-1_nblocks16/',
 'restore_file': None,
 'results_file': 'results.txt',
 'seed': 1,
 'start_epoch': 0,
 'train': True,
 'use_encoder': False}
RealNVP(
  (net): FlowSequential(
    (0): LinearMaskedCoupling(
      (s_net): Sequential(
        (0): Linear(in_features=24576, out_features=64, bias=True)
        (1): Tanh()
        (2): Linear(in_features=64, out_features=64, bias=True)
        (3): Tanh()
        (4): Linear(in_features=64, out_features=24576, bias=True)
      )
      (t_net): Sequential(
        (0): Linear(in_features=24576, out_features=64, bias=True)
        (1): ReLU()
        (2): Linear(in_features=64, out_features=64, bias=True)
        (3): ReLU()
        (4): Linear(in_features=64, out_features=24576, bias=True)
      )
    )
    (1): BatchNorm()
    (2): LinearMaskedCoupling(
      (s_net): Sequential(
        (0): Linear(in_features=24576, out_features=64, bias=True)
        (1): Tanh()
        (2): Linear(in_features=64, out_features=64, bias=True)
        (3): Tanh()
        (4): Linear(in_features=64, out_features=24576, bias=True)
      )
      (t_net): Sequential(
        (0): Linear(in_features=24576, out_features=64, bias=True)
        (1): ReLU()
        (2): Linear(in_features=64, out_features=64, bias=True)
        (3): ReLU()
        (4): Linear(in_features=64, out_features=24576, bias=True)
      )
    )
    (3): BatchNorm()
    (4): LinearMaskedCoupling(
      (s_net): Sequential(
        (0): Linear(in_features=24576, out_features=64, bias=True)
        (1): Tanh()
        (2): Linear(in_features=64, out_features=64, bias=True)
        (3): Tanh()
        (4): Linear(in_features=64, out_features=24576, bias=True)
      )
      (t_net): Sequential(
        (0): Linear(in_features=24576, out_features=64, bias=True)
        (1): ReLU()
        (2): Linear(in_features=64, out_features=64, bias=True)
        (3): ReLU()
        (4): Linear(in_features=64, out_features=24576, bias=True)
      )
    )
    (5): BatchNorm()
    (6): LinearMaskedCoupling(
      (s_net): Sequential(
        (0): Linear(in_features=24576, out_features=64, bias=True)
        (1): Tanh()
        (2): Linear(in_features=64, out_features=64, bias=True)
        (3): Tanh()
        (4): Linear(in_features=64, out_features=24576, bias=True)
      )
      (t_net): Sequential(
        (0): Linear(in_features=24576, out_features=64, bias=True)
        (1): ReLU()
        (2): Linear(in_features=64, out_features=64, bias=True)
        (3): ReLU()
        (4): Linear(in_features=64, out_features=24576, bias=True)
      )
    )
    (7): BatchNorm()
    (8): LinearMaskedCoupling(
      (s_net): Sequential(
        (0): Linear(in_features=24576, out_features=64, bias=True)
        (1): Tanh()
        (2): Linear(in_features=64, out_features=64, bias=True)
        (3): Tanh()
        (4): Linear(in_features=64, out_features=24576, bias=True)
      )
      (t_net): Sequential(
        (0): Linear(in_features=24576, out_features=64, bias=True)
        (1): ReLU()
        (2): Linear(in_features=64, out_features=64, bias=True)
        (3): ReLU()
        (4): Linear(in_features=64, out_features=24576, bias=True)
      )
    )
    (9): BatchNorm()
    (10): LinearMaskedCoupling(
      (s_net): Sequential(
        (0): Linear(in_features=24576, out_features=64, bias=True)
        (1): Tanh()
        (2): Linear(in_features=64, out_features=64, bias=True)
        (3): Tanh()
        (4): Linear(in_features=64, out_features=24576, bias=True)
      )
      (t_net): Sequential(
        (0): Linear(in_features=24576, out_features=64, bias=True)
        (1): ReLU()
        (2): Linear(in_features=64, out_features=64, bias=True)
        (3): ReLU()
        (4): Linear(in_features=64, out_features=24576, bias=True)
      )
    )
    (11): BatchNorm()
    (12): LinearMaskedCoupling(
      (s_net): Sequential(
        (0): Linear(in_features=24576, out_features=64, bias=True)
        (1): Tanh()
        (2): Linear(in_features=64, out_features=64, bias=True)
        (3): Tanh()
        (4): Linear(in_features=64, out_features=24576, bias=True)
      )
      (t_net): Sequential(
        (0): Linear(in_features=24576, out_features=64, bias=True)
        (1): ReLU()
        (2): Linear(in_features=64, out_features=64, bias=True)
        (3): ReLU()
        (4): Linear(in_features=64, out_features=24576, bias=True)
      )
    )
    (13): BatchNorm()
    (14): LinearMaskedCoupling(
      (s_net): Sequential(
        (0): Linear(in_features=24576, out_features=64, bias=True)
        (1): Tanh()
        (2): Linear(in_features=64, out_features=64, bias=True)
        (3): Tanh()
        (4): Linear(in_features=64, out_features=24576, bias=True)
      )
      (t_net): Sequential(
        (0): Linear(in_features=24576, out_features=64, bias=True)
        (1): ReLU()
        (2): Linear(in_features=64, out_features=64, bias=True)
        (3): ReLU()
        (4): Linear(in_features=64, out_features=24576, bias=True)
      )
    )
    (15): BatchNorm()
    (16): LinearMaskedCoupling(
      (s_net): Sequential(
        (0): Linear(in_features=24576, out_features=64, bias=True)
        (1): Tanh()
        (2): Linear(in_features=64, out_features=64, bias=True)
        (3): Tanh()
        (4): Linear(in_features=64, out_features=24576, bias=True)
      )
      (t_net): Sequential(
        (0): Linear(in_features=24576, out_features=64, bias=True)
        (1): ReLU()
        (2): Linear(in_features=64, out_features=64, bias=True)
        (3): ReLU()
        (4): Linear(in_features=64, out_features=24576, bias=True)
      )
    )
    (17): BatchNorm()
    (18): LinearMaskedCoupling(
      (s_net): Sequential(
        (0): Linear(in_features=24576, out_features=64, bias=True)
        (1): Tanh()
        (2): Linear(in_features=64, out_features=64, bias=True)
        (3): Tanh()
        (4): Linear(in_features=64, out_features=24576, bias=True)
      )
      (t_net): Sequential(
        (0): Linear(in_features=24576, out_features=64, bias=True)
        (1): ReLU()
        (2): Linear(in_features=64, out_features=64, bias=True)
        (3): ReLU()
        (4): Linear(in_features=64, out_features=24576, bias=True)
      )
    )
    (19): BatchNorm()
    (20): LinearMaskedCoupling(
      (s_net): Sequential(
        (0): Linear(in_features=24576, out_features=64, bias=True)
        (1): Tanh()
        (2): Linear(in_features=64, out_features=64, bias=True)
        (3): Tanh()
        (4): Linear(in_features=64, out_features=24576, bias=True)
      )
      (t_net): Sequential(
        (0): Linear(in_features=24576, out_features=64, bias=True)
        (1): ReLU()
        (2): Linear(in_features=64, out_features=64, bias=True)
        (3): ReLU()
        (4): Linear(in_features=64, out_features=24576, bias=True)
      )
    )
    (21): BatchNorm()
    (22): LinearMaskedCoupling(
      (s_net): Sequential(
        (0): Linear(in_features=24576, out_features=64, bias=True)
        (1): Tanh()
        (2): Linear(in_features=64, out_features=64, bias=True)
        (3): Tanh()
        (4): Linear(in_features=64, out_features=24576, bias=True)
      )
      (t_net): Sequential(
        (0): Linear(in_features=24576, out_features=64, bias=True)
        (1): ReLU()
        (2): Linear(in_features=64, out_features=64, bias=True)
        (3): ReLU()
        (4): Linear(in_features=64, out_features=24576, bias=True)
      )
    )
    (23): BatchNorm()
    (24): LinearMaskedCoupling(
      (s_net): Sequential(
        (0): Linear(in_features=24576, out_features=64, bias=True)
        (1): Tanh()
        (2): Linear(in_features=64, out_features=64, bias=True)
        (3): Tanh()
        (4): Linear(in_features=64, out_features=24576, bias=True)
      )
      (t_net): Sequential(
        (0): Linear(in_features=24576, out_features=64, bias=True)
        (1): ReLU()
        (2): Linear(in_features=64, out_features=64, bias=True)
        (3): ReLU()
        (4): Linear(in_features=64, out_features=24576, bias=True)
      )
    )
    (25): BatchNorm()
    (26): LinearMaskedCoupling(
      (s_net): Sequential(
        (0): Linear(in_features=24576, out_features=64, bias=True)
        (1): Tanh()
        (2): Linear(in_features=64, out_features=64, bias=True)
        (3): Tanh()
        (4): Linear(in_features=64, out_features=24576, bias=True)
      )
      (t_net): Sequential(
        (0): Linear(in_features=24576, out_features=64, bias=True)
        (1): ReLU()
        (2): Linear(in_features=64, out_features=64, bias=True)
        (3): ReLU()
        (4): Linear(in_features=64, out_features=24576, bias=True)
      )
    )
    (27): BatchNorm()
    (28): LinearMaskedCoupling(
      (s_net): Sequential(
        (0): Linear(in_features=24576, out_features=64, bias=True)
        (1): Tanh()
        (2): Linear(in_features=64, out_features=64, bias=True)
        (3): Tanh()
        (4): Linear(in_features=64, out_features=24576, bias=True)
      )
      (t_net): Sequential(
        (0): Linear(in_features=24576, out_features=64, bias=True)
        (1): ReLU()
        (2): Linear(in_features=64, out_features=64, bias=True)
        (3): ReLU()
        (4): Linear(in_features=64, out_features=24576, bias=True)
      )
    )
    (29): BatchNorm()
    (30): LinearMaskedCoupling(
      (s_net): Sequential(
        (0): Linear(in_features=24576, out_features=64, bias=True)
        (1): Tanh()
        (2): Linear(in_features=64, out_features=64, bias=True)
        (3): Tanh()
        (4): Linear(in_features=64, out_features=24576, bias=True)
      )
      (t_net): Sequential(
        (0): Linear(in_features=24576, out_features=64, bias=True)
        (1): ReLU()
        (2): Linear(in_features=64, out_features=64, bias=True)
        (3): ReLU()
        (4): Linear(in_features=64, out_features=24576, bias=True)
      )
    )
    (31): BatchNorm()
  )
)
Evaluate (epoch 0) -- logp(x) = -439434.844 +/- 48236.852
